program(1.0)
[buildInfo = dict<tensor<string, []>, tensor<string, []>>({{"coremlc-component-MIL", "3520.4.1"}, {"coremlc-version", "3520.5.1"}, {"coremltools-component-torch", "2.8.0"}, {"coremltools-source-dialect", "TorchScript"}, {"coremltools-version", "9.0"}})]
{
    func main<ios16>(tensor<fp32, [1, 3, 112, 112]> face_image) {
            tensor<string, []> input_tensor_1_pad_type_0 = const()[name = tensor<string, []>("input_tensor_1_pad_type_0"), val = tensor<string, []>("custom")];
            tensor<int32, [4]> input_tensor_1_pad_0 = const()[name = tensor<string, []>("input_tensor_1_pad_0"), val = tensor<int32, [4]>([1, 1, 1, 1])];
            tensor<int32, [2]> input_tensor_1_strides_0 = const()[name = tensor<string, []>("input_tensor_1_strides_0"), val = tensor<int32, [2]>([2, 2])];
            tensor<int32, [2]> input_tensor_1_dilations_0 = const()[name = tensor<string, []>("input_tensor_1_dilations_0"), val = tensor<int32, [2]>([1, 1])];
            tensor<int32, []> input_tensor_1_groups_0 = const()[name = tensor<string, []>("input_tensor_1_groups_0"), val = tensor<int32, []>(1)];
            tensor<string, []> face_image_to_fp16_dtype_0 = const()[name = tensor<string, []>("face_image_to_fp16_dtype_0"), val = tensor<string, []>("fp16")];
            tensor<fp16, [128, 3, 3, 3]> Conv_0_weight_to_fp16 = const()[name = tensor<string, []>("Conv_0_weight_to_fp16"), val = tensor<fp16, [128, 3, 3, 3]>(BLOBFILE(path = tensor<string, []>("@model_path/weights/weight.bin"), offset = tensor<uint64, []>(64)))];
            tensor<fp16, [128]> Conv_0_bias_to_fp16 = const()[name = tensor<string, []>("Conv_0_bias_to_fp16"), val = tensor<fp16, [128]>(BLOBFILE(path = tensor<string, []>("@model_path/weights/weight.bin"), offset = tensor<uint64, []>(7040)))];
            tensor<fp16, [1, 3, 112, 112]> face_image_to_fp16 = cast(dtype = face_image_to_fp16_dtype_0, x = face_image)[name = tensor<string, []>("cast_36")];
            tensor<fp16, [1, 128, 56, 56]> input_tensor_1_cast_fp16 = conv(bias = Conv_0_bias_to_fp16, dilations = input_tensor_1_dilations_0, groups = input_tensor_1_groups_0, pad = input_tensor_1_pad_0, pad_type = input_tensor_1_pad_type_0, strides = input_tensor_1_strides_0, weight = Conv_0_weight_to_fp16, x = face_image_to_fp16)[name = tensor<string, []>("input_tensor_1_cast_fp16")];
            tensor<fp16, [128]> input_1_alpha_0_to_fp16 = const()[name = tensor<string, []>("input_1_alpha_0_to_fp16"), val = tensor<fp16, [128]>(BLOBFILE(path = tensor<string, []>("@model_path/weights/weight.bin"), offset = tensor<uint64, []>(7360)))];
            tensor<fp16, [1, 128, 56, 56]> input_1_cast_fp16 = prelu(alpha = input_1_alpha_0_to_fp16, x = input_tensor_1_cast_fp16)[name = tensor<string, []>("input_1_cast_fp16")];
            tensor<string, []> input_tensor_3_pad_type_0 = const()[name = tensor<string, []>("input_tensor_3_pad_type_0"), val = tensor<string, []>("custom")];
            tensor<int32, [4]> input_tensor_3_pad_0 = const()[name = tensor<string, []>("input_tensor_3_pad_0"), val = tensor<int32, [4]>([1, 1, 1, 1])];
            tensor<int32, []> input_tensor_3_groups_0 = const()[name = tensor<string, []>("input_tensor_3_groups_0"), val = tensor<int32, []>(64)];
            tensor<int32, [2]> input_tensor_3_strides_0 = const()[name = tensor<string, []>("input_tensor_3_strides_0"), val = tensor<int32, [2]>([1, 1])];
            tensor<int32, [2]> input_tensor_3_dilations_0 = const()[name = tensor<string, []>("input_tensor_3_dilations_0"), val = tensor<int32, [2]>([1, 1])];
            tensor<fp16, [128, 2, 3, 3]> Conv_2_weight_to_fp16 = const()[name = tensor<string, []>("Conv_2_weight_to_fp16"), val = tensor<fp16, [128, 2, 3, 3]>(BLOBFILE(path = tensor<string, []>("@model_path/weights/weight.bin"), offset = tensor<uint64, []>(7680)))];
            tensor<fp16, [128]> Conv_2_bias_to_fp16 = const()[name = tensor<string, []>("Conv_2_bias_to_fp16"), val = tensor<fp16, [128]>(BLOBFILE(path = tensor<string, []>("@model_path/weights/weight.bin"), offset = tensor<uint64, []>(12352)))];
            tensor<fp16, [1, 128, 56, 56]> input_tensor_3_cast_fp16 = conv(bias = Conv_2_bias_to_fp16, dilations = input_tensor_3_dilations_0, groups = input_tensor_3_groups_0, pad = input_tensor_3_pad_0, pad_type = input_tensor_3_pad_type_0, strides = input_tensor_3_strides_0, weight = Conv_2_weight_to_fp16, x = input_1_cast_fp16)[name = tensor<string, []>("input_tensor_3_cast_fp16")];
            tensor<fp16, [128]> input_3_alpha_0_to_fp16 = const()[name = tensor<string, []>("input_3_alpha_0_to_fp16"), val = tensor<fp16, [128]>(BLOBFILE(path = tensor<string, []>("@model_path/weights/weight.bin"), offset = tensor<uint64, []>(12672)))];
            tensor<fp16, [1, 128, 56, 56]> input_3_cast_fp16 = prelu(alpha = input_3_alpha_0_to_fp16, x = input_tensor_3_cast_fp16)[name = tensor<string, []>("input_3_cast_fp16")];
            tensor<string, []> input_tensor_5_pad_type_0 = const()[name = tensor<string, []>("input_tensor_5_pad_type_0"), val = tensor<string, []>("valid")];
            tensor<int32, [2]> input_tensor_5_strides_0 = const()[name = tensor<string, []>("input_tensor_5_strides_0"), val = tensor<int32, [2]>([1, 1])];
            tensor<int32, [4]> input_tensor_5_pad_0 = const()[name = tensor<string, []>("input_tensor_5_pad_0"), val = tensor<int32, [4]>([0, 0, 0, 0])];
            tensor<int32, [2]> input_tensor_5_dilations_0 = const()[name = tensor<string, []>("input_tensor_5_dilations_0"), val = tensor<int32, [2]>([1, 1])];
            tensor<int32, []> input_tensor_5_groups_0 = const()[name = tensor<string, []>("input_tensor_5_groups_0"), val = tensor<int32, []>(1)];
            tensor<fp16, [128, 128, 1, 1]> Conv_4_weight_to_fp16 = const()[name = tensor<string, []>("Conv_4_weight_to_fp16"), val = tensor<fp16, [128, 128, 1, 1]>(BLOBFILE(path = tensor<string, []>("@model_path/weights/weight.bin"), offset = tensor<uint64, []>(12992)))];
            tensor<fp16, [128]> Conv_4_bias_to_fp16 = const()[name = tensor<string, []>("Conv_4_bias_to_fp16"), val = tensor<fp16, [128]>(BLOBFILE(path = tensor<string, []>("@model_path/weights/weight.bin"), offset = tensor<uint64, []>(45824)))];
            tensor<fp16, [1, 128, 56, 56]> input_tensor_5_cast_fp16 = conv(bias = Conv_4_bias_to_fp16, dilations = input_tensor_5_dilations_0, groups = input_tensor_5_groups_0, pad = input_tensor_5_pad_0, pad_type = input_tensor_5_pad_type_0, strides = input_tensor_5_strides_0, weight = Conv_4_weight_to_fp16, x = input_3_cast_fp16)[name = tensor<string, []>("input_tensor_5_cast_fp16")];
            tensor<fp16, [128]> input_5_alpha_0_to_fp16 = const()[name = tensor<string, []>("input_5_alpha_0_to_fp16"), val = tensor<fp16, [128]>(BLOBFILE(path = tensor<string, []>("@model_path/weights/weight.bin"), offset = tensor<uint64, []>(46144)))];
            tensor<fp16, [1, 128, 56, 56]> input_5_cast_fp16 = prelu(alpha = input_5_alpha_0_to_fp16, x = input_tensor_5_cast_fp16)[name = tensor<string, []>("input_5_cast_fp16")];
            tensor<string, []> input_tensor_7_pad_type_0 = const()[name = tensor<string, []>("input_tensor_7_pad_type_0"), val = tensor<string, []>("custom")];
            tensor<int32, [4]> input_tensor_7_pad_0 = const()[name = tensor<string, []>("input_tensor_7_pad_0"), val = tensor<int32, [4]>([1, 1, 1, 1])];
            tensor<int32, [2]> input_tensor_7_strides_0 = const()[name = tensor<string, []>("input_tensor_7_strides_0"), val = tensor<int32, [2]>([2, 2])];
            tensor<int32, []> input_tensor_7_groups_0 = const()[name = tensor<string, []>("input_tensor_7_groups_0"), val = tensor<int32, []>(128)];
            tensor<int32, [2]> input_tensor_7_dilations_0 = const()[name = tensor<string, []>("input_tensor_7_dilations_0"), val = tensor<int32, [2]>([1, 1])];
            tensor<fp16, [128, 1, 3, 3]> Conv_6_weight_to_fp16 = const()[name = tensor<string, []>("Conv_6_weight_to_fp16"), val = tensor<fp16, [128, 1, 3, 3]>(BLOBFILE(path = tensor<string, []>("@model_path/weights/weight.bin"), offset = tensor<uint64, []>(46464)))];
            tensor<fp16, [128]> Conv_6_bias_to_fp16 = const()[name = tensor<string, []>("Conv_6_bias_to_fp16"), val = tensor<fp16, [128]>(BLOBFILE(path = tensor<string, []>("@model_path/weights/weight.bin"), offset = tensor<uint64, []>(48832)))];
            tensor<fp16, [1, 128, 28, 28]> input_tensor_7_cast_fp16 = conv(bias = Conv_6_bias_to_fp16, dilations = input_tensor_7_dilations_0, groups = input_tensor_7_groups_0, pad = input_tensor_7_pad_0, pad_type = input_tensor_7_pad_type_0, strides = input_tensor_7_strides_0, weight = Conv_6_weight_to_fp16, x = input_5_cast_fp16)[name = tensor<string, []>("input_tensor_7_cast_fp16")];
            tensor<fp16, [128]> input_7_alpha_0_to_fp16 = const()[name = tensor<string, []>("input_7_alpha_0_to_fp16"), val = tensor<fp16, [128]>(BLOBFILE(path = tensor<string, []>("@model_path/weights/weight.bin"), offset = tensor<uint64, []>(49152)))];
            tensor<fp16, [1, 128, 28, 28]> input_7_cast_fp16 = prelu(alpha = input_7_alpha_0_to_fp16, x = input_tensor_7_cast_fp16)[name = tensor<string, []>("input_7_cast_fp16")];
            tensor<string, []> input_9_pad_type_0 = const()[name = tensor<string, []>("input_9_pad_type_0"), val = tensor<string, []>("valid")];
            tensor<int32, [2]> input_9_strides_0 = const()[name = tensor<string, []>("input_9_strides_0"), val = tensor<int32, [2]>([1, 1])];
            tensor<int32, [4]> input_9_pad_0 = const()[name = tensor<string, []>("input_9_pad_0"), val = tensor<int32, [4]>([0, 0, 0, 0])];
            tensor<int32, [2]> input_9_dilations_0 = const()[name = tensor<string, []>("input_9_dilations_0"), val = tensor<int32, [2]>([1, 1])];
            tensor<int32, []> input_9_groups_0 = const()[name = tensor<string, []>("input_9_groups_0"), val = tensor<int32, []>(1)];
            tensor<fp16, [128, 128, 1, 1]> Conv_8_weight_to_fp16 = const()[name = tensor<string, []>("Conv_8_weight_to_fp16"), val = tensor<fp16, [128, 128, 1, 1]>(BLOBFILE(path = tensor<string, []>("@model_path/weights/weight.bin"), offset = tensor<uint64, []>(49472)))];
            tensor<fp16, [128]> Conv_8_bias_to_fp16 = const()[name = tensor<string, []>("Conv_8_bias_to_fp16"), val = tensor<fp16, [128]>(BLOBFILE(path = tensor<string, []>("@model_path/weights/weight.bin"), offset = tensor<uint64, []>(82304)))];
            tensor<fp16, [1, 128, 28, 28]> input_9_cast_fp16 = conv(bias = Conv_8_bias_to_fp16, dilations = input_9_dilations_0, groups = input_9_groups_0, pad = input_9_pad_0, pad_type = input_9_pad_type_0, strides = input_9_strides_0, weight = Conv_8_weight_to_fp16, x = input_7_cast_fp16)[name = tensor<string, []>("input_9_cast_fp16")];
            tensor<string, []> input_tensor_9_pad_type_0 = const()[name = tensor<string, []>("input_tensor_9_pad_type_0"), val = tensor<string, []>("valid")];
            tensor<int32, [2]> input_tensor_9_strides_0 = const()[name = tensor<string, []>("input_tensor_9_strides_0"), val = tensor<int32, [2]>([1, 1])];
            tensor<int32, [4]> input_tensor_9_pad_0 = const()[name = tensor<string, []>("input_tensor_9_pad_0"), val = tensor<int32, [4]>([0, 0, 0, 0])];
            tensor<int32, [2]> input_tensor_9_dilations_0 = const()[name = tensor<string, []>("input_tensor_9_dilations_0"), val = tensor<int32, [2]>([1, 1])];
            tensor<int32, []> input_tensor_9_groups_0 = const()[name = tensor<string, []>("input_tensor_9_groups_0"), val = tensor<int32, []>(1)];
            tensor<fp16, [128, 128, 1, 1]> Conv_9_weight_to_fp16 = const()[name = tensor<string, []>("Conv_9_weight_to_fp16"), val = tensor<fp16, [128, 128, 1, 1]>(BLOBFILE(path = tensor<string, []>("@model_path/weights/weight.bin"), offset = tensor<uint64, []>(82624)))];
            tensor<fp16, [128]> Conv_9_bias_to_fp16 = const()[name = tensor<string, []>("Conv_9_bias_to_fp16"), val = tensor<fp16, [128]>(BLOBFILE(path = tensor<string, []>("@model_path/weights/weight.bin"), offset = tensor<uint64, []>(115456)))];
            tensor<fp16, [1, 128, 28, 28]> input_tensor_9_cast_fp16 = conv(bias = Conv_9_bias_to_fp16, dilations = input_tensor_9_dilations_0, groups = input_tensor_9_groups_0, pad = input_tensor_9_pad_0, pad_type = input_tensor_9_pad_type_0, strides = input_tensor_9_strides_0, weight = Conv_9_weight_to_fp16, x = input_9_cast_fp16)[name = tensor<string, []>("input_tensor_9_cast_fp16")];
            tensor<fp16, [128]> input_11_alpha_0_to_fp16 = const()[name = tensor<string, []>("input_11_alpha_0_to_fp16"), val = tensor<fp16, [128]>(BLOBFILE(path = tensor<string, []>("@model_path/weights/weight.bin"), offset = tensor<uint64, []>(115776)))];
            tensor<fp16, [1, 128, 28, 28]> input_11_cast_fp16 = prelu(alpha = input_11_alpha_0_to_fp16, x = input_tensor_9_cast_fp16)[name = tensor<string, []>("input_11_cast_fp16")];
            tensor<string, []> input_tensor_11_pad_type_0 = const()[name = tensor<string, []>("input_tensor_11_pad_type_0"), val = tensor<string, []>("custom")];
            tensor<int32, [4]> input_tensor_11_pad_0 = const()[name = tensor<string, []>("input_tensor_11_pad_0"), val = tensor<int32, [4]>([1, 1, 1, 1])];
            tensor<int32, []> input_tensor_11_groups_0 = const()[name = tensor<string, []>("input_tensor_11_groups_0"), val = tensor<int32, []>(128)];
            tensor<int32, [2]> input_tensor_11_strides_0 = const()[name = tensor<string, []>("input_tensor_11_strides_0"), val = tensor<int32, [2]>([1, 1])];
            tensor<int32, [2]> input_tensor_11_dilations_0 = const()[name = tensor<string, []>("input_tensor_11_dilations_0"), val = tensor<int32, [2]>([1, 1])];
            tensor<fp16, [128, 1, 3, 3]> Conv_11_weight_to_fp16 = const()[name = tensor<string, []>("Conv_11_weight_to_fp16"), val = tensor<fp16, [128, 1, 3, 3]>(BLOBFILE(path = tensor<string, []>("@model_path/weights/weight.bin"), offset = tensor<uint64, []>(116096)))];
            tensor<fp16, [128]> Conv_11_bias_to_fp16 = const()[name = tensor<string, []>("Conv_11_bias_to_fp16"), val = tensor<fp16, [128]>(BLOBFILE(path = tensor<string, []>("@model_path/weights/weight.bin"), offset = tensor<uint64, []>(118464)))];
            tensor<fp16, [1, 128, 28, 28]> input_tensor_11_cast_fp16 = conv(bias = Conv_11_bias_to_fp16, dilations = input_tensor_11_dilations_0, groups = input_tensor_11_groups_0, pad = input_tensor_11_pad_0, pad_type = input_tensor_11_pad_type_0, strides = input_tensor_11_strides_0, weight = Conv_11_weight_to_fp16, x = input_11_cast_fp16)[name = tensor<string, []>("input_tensor_11_cast_fp16")];
            tensor<fp16, [128]> input_13_alpha_0_to_fp16 = const()[name = tensor<string, []>("input_13_alpha_0_to_fp16"), val = tensor<fp16, [128]>(BLOBFILE(path = tensor<string, []>("@model_path/weights/weight.bin"), offset = tensor<uint64, []>(118784)))];
            tensor<fp16, [1, 128, 28, 28]> input_13_cast_fp16 = prelu(alpha = input_13_alpha_0_to_fp16, x = input_tensor_11_cast_fp16)[name = tensor<string, []>("input_13_cast_fp16")];
            tensor<string, []> second_1_pad_type_0 = const()[name = tensor<string, []>("second_1_pad_type_0"), val = tensor<string, []>("valid")];
            tensor<int32, [2]> second_1_strides_0 = const()[name = tensor<string, []>("second_1_strides_0"), val = tensor<int32, [2]>([1, 1])];
            tensor<int32, [4]> second_1_pad_0 = const()[name = tensor<string, []>("second_1_pad_0"), val = tensor<int32, [4]>([0, 0, 0, 0])];
            tensor<int32, [2]> second_1_dilations_0 = const()[name = tensor<string, []>("second_1_dilations_0"), val = tensor<int32, [2]>([1, 1])];
            tensor<int32, []> second_1_groups_0 = const()[name = tensor<string, []>("second_1_groups_0"), val = tensor<int32, []>(1)];
            tensor<fp16, [128, 128, 1, 1]> Conv_13_weight_to_fp16 = const()[name = tensor<string, []>("Conv_13_weight_to_fp16"), val = tensor<fp16, [128, 128, 1, 1]>(BLOBFILE(path = tensor<string, []>("@model_path/weights/weight.bin"), offset = tensor<uint64, []>(119104)))];
            tensor<fp16, [128]> Conv_13_bias_to_fp16 = const()[name = tensor<string, []>("Conv_13_bias_to_fp16"), val = tensor<fp16, [128]>(BLOBFILE(path = tensor<string, []>("@model_path/weights/weight.bin"), offset = tensor<uint64, []>(151936)))];
            tensor<fp16, [1, 128, 28, 28]> second_1_cast_fp16 = conv(bias = Conv_13_bias_to_fp16, dilations = second_1_dilations_0, groups = second_1_groups_0, pad = second_1_pad_0, pad_type = second_1_pad_type_0, strides = second_1_strides_0, weight = Conv_13_weight_to_fp16, x = input_13_cast_fp16)[name = tensor<string, []>("second_1_cast_fp16")];
            tensor<fp16, [1, 128, 28, 28]> input_15_cast_fp16 = add(x = input_9_cast_fp16, y = second_1_cast_fp16)[name = tensor<string, []>("input_15_cast_fp16")];
            tensor<string, []> input_tensor_13_pad_type_0 = const()[name = tensor<string, []>("input_tensor_13_pad_type_0"), val = tensor<string, []>("valid")];
            tensor<int32, [2]> input_tensor_13_strides_0 = const()[name = tensor<string, []>("input_tensor_13_strides_0"), val = tensor<int32, [2]>([1, 1])];
            tensor<int32, [4]> input_tensor_13_pad_0 = const()[name = tensor<string, []>("input_tensor_13_pad_0"), val = tensor<int32, [4]>([0, 0, 0, 0])];
            tensor<int32, [2]> input_tensor_13_dilations_0 = const()[name = tensor<string, []>("input_tensor_13_dilations_0"), val = tensor<int32, [2]>([1, 1])];
            tensor<int32, []> input_tensor_13_groups_0 = const()[name = tensor<string, []>("input_tensor_13_groups_0"), val = tensor<int32, []>(1)];
            tensor<fp16, [128, 128, 1, 1]> Conv_15_weight_to_fp16 = const()[name = tensor<string, []>("Conv_15_weight_to_fp16"), val = tensor<fp16, [128, 128, 1, 1]>(BLOBFILE(path = tensor<string, []>("@model_path/weights/weight.bin"), offset = tensor<uint64, []>(152256)))];
            tensor<fp16, [128]> Conv_15_bias_to_fp16 = const()[name = tensor<string, []>("Conv_15_bias_to_fp16"), val = tensor<fp16, [128]>(BLOBFILE(path = tensor<string, []>("@model_path/weights/weight.bin"), offset = tensor<uint64, []>(185088)))];
            tensor<fp16, [1, 128, 28, 28]> input_tensor_13_cast_fp16 = conv(bias = Conv_15_bias_to_fp16, dilations = input_tensor_13_dilations_0, groups = input_tensor_13_groups_0, pad = input_tensor_13_pad_0, pad_type = input_tensor_13_pad_type_0, strides = input_tensor_13_strides_0, weight = Conv_15_weight_to_fp16, x = input_15_cast_fp16)[name = tensor<string, []>("input_tensor_13_cast_fp16")];
            tensor<fp16, [128]> input_17_alpha_0_to_fp16 = const()[name = tensor<string, []>("input_17_alpha_0_to_fp16"), val = tensor<fp16, [128]>(BLOBFILE(path = tensor<string, []>("@model_path/weights/weight.bin"), offset = tensor<uint64, []>(185408)))];
            tensor<fp16, [1, 128, 28, 28]> input_17_cast_fp16 = prelu(alpha = input_17_alpha_0_to_fp16, x = input_tensor_13_cast_fp16)[name = tensor<string, []>("input_17_cast_fp16")];
            tensor<string, []> input_tensor_15_pad_type_0 = const()[name = tensor<string, []>("input_tensor_15_pad_type_0"), val = tensor<string, []>("custom")];
            tensor<int32, [4]> input_tensor_15_pad_0 = const()[name = tensor<string, []>("input_tensor_15_pad_0"), val = tensor<int32, [4]>([1, 1, 1, 1])];
            tensor<int32, []> input_tensor_15_groups_0 = const()[name = tensor<string, []>("input_tensor_15_groups_0"), val = tensor<int32, []>(128)];
            tensor<int32, [2]> input_tensor_15_strides_0 = const()[name = tensor<string, []>("input_tensor_15_strides_0"), val = tensor<int32, [2]>([1, 1])];
            tensor<int32, [2]> input_tensor_15_dilations_0 = const()[name = tensor<string, []>("input_tensor_15_dilations_0"), val = tensor<int32, [2]>([1, 1])];
            tensor<fp16, [128, 1, 3, 3]> Conv_17_weight_to_fp16 = const()[name = tensor<string, []>("Conv_17_weight_to_fp16"), val = tensor<fp16, [128, 1, 3, 3]>(BLOBFILE(path = tensor<string, []>("@model_path/weights/weight.bin"), offset = tensor<uint64, []>(185728)))];
            tensor<fp16, [128]> Conv_17_bias_to_fp16 = const()[name = tensor<string, []>("Conv_17_bias_to_fp16"), val = tensor<fp16, [128]>(BLOBFILE(path = tensor<string, []>("@model_path/weights/weight.bin"), offset = tensor<uint64, []>(188096)))];
            tensor<fp16, [1, 128, 28, 28]> input_tensor_15_cast_fp16 = conv(bias = Conv_17_bias_to_fp16, dilations = input_tensor_15_dilations_0, groups = input_tensor_15_groups_0, pad = input_tensor_15_pad_0, pad_type = input_tensor_15_pad_type_0, strides = input_tensor_15_strides_0, weight = Conv_17_weight_to_fp16, x = input_17_cast_fp16)[name = tensor<string, []>("input_tensor_15_cast_fp16")];
            tensor<fp16, [128]> input_19_alpha_0_to_fp16 = const()[name = tensor<string, []>("input_19_alpha_0_to_fp16"), val = tensor<fp16, [128]>(BLOBFILE(path = tensor<string, []>("@model_path/weights/weight.bin"), offset = tensor<uint64, []>(188416)))];
            tensor<fp16, [1, 128, 28, 28]> input_19_cast_fp16 = prelu(alpha = input_19_alpha_0_to_fp16, x = input_tensor_15_cast_fp16)[name = tensor<string, []>("input_19_cast_fp16")];
            tensor<string, []> second_3_pad_type_0 = const()[name = tensor<string, []>("second_3_pad_type_0"), val = tensor<string, []>("valid")];
            tensor<int32, [2]> second_3_strides_0 = const()[name = tensor<string, []>("second_3_strides_0"), val = tensor<int32, [2]>([1, 1])];
            tensor<int32, [4]> second_3_pad_0 = const()[name = tensor<string, []>("second_3_pad_0"), val = tensor<int32, [4]>([0, 0, 0, 0])];
            tensor<int32, [2]> second_3_dilations_0 = const()[name = tensor<string, []>("second_3_dilations_0"), val = tensor<int32, [2]>([1, 1])];
            tensor<int32, []> second_3_groups_0 = const()[name = tensor<string, []>("second_3_groups_0"), val = tensor<int32, []>(1)];
            tensor<fp16, [128, 128, 1, 1]> Conv_19_weight_to_fp16 = const()[name = tensor<string, []>("Conv_19_weight_to_fp16"), val = tensor<fp16, [128, 128, 1, 1]>(BLOBFILE(path = tensor<string, []>("@model_path/weights/weight.bin"), offset = tensor<uint64, []>(188736)))];
            tensor<fp16, [128]> Conv_19_bias_to_fp16 = const()[name = tensor<string, []>("Conv_19_bias_to_fp16"), val = tensor<fp16, [128]>(BLOBFILE(path = tensor<string, []>("@model_path/weights/weight.bin"), offset = tensor<uint64, []>(221568)))];
            tensor<fp16, [1, 128, 28, 28]> second_3_cast_fp16 = conv(bias = Conv_19_bias_to_fp16, dilations = second_3_dilations_0, groups = second_3_groups_0, pad = second_3_pad_0, pad_type = second_3_pad_type_0, strides = second_3_strides_0, weight = Conv_19_weight_to_fp16, x = input_19_cast_fp16)[name = tensor<string, []>("second_3_cast_fp16")];
            tensor<fp16, [1, 128, 28, 28]> input_21_cast_fp16 = add(x = input_15_cast_fp16, y = second_3_cast_fp16)[name = tensor<string, []>("input_21_cast_fp16")];
            tensor<string, []> input_tensor_17_pad_type_0 = const()[name = tensor<string, []>("input_tensor_17_pad_type_0"), val = tensor<string, []>("valid")];
            tensor<int32, [2]> input_tensor_17_strides_0 = const()[name = tensor<string, []>("input_tensor_17_strides_0"), val = tensor<int32, [2]>([1, 1])];
            tensor<int32, [4]> input_tensor_17_pad_0 = const()[name = tensor<string, []>("input_tensor_17_pad_0"), val = tensor<int32, [4]>([0, 0, 0, 0])];
            tensor<int32, [2]> input_tensor_17_dilations_0 = const()[name = tensor<string, []>("input_tensor_17_dilations_0"), val = tensor<int32, [2]>([1, 1])];
            tensor<int32, []> input_tensor_17_groups_0 = const()[name = tensor<string, []>("input_tensor_17_groups_0"), val = tensor<int32, []>(1)];
            tensor<fp16, [128, 128, 1, 1]> Conv_21_weight_to_fp16 = const()[name = tensor<string, []>("Conv_21_weight_to_fp16"), val = tensor<fp16, [128, 128, 1, 1]>(BLOBFILE(path = tensor<string, []>("@model_path/weights/weight.bin"), offset = tensor<uint64, []>(221888)))];
            tensor<fp16, [128]> Conv_21_bias_to_fp16 = const()[name = tensor<string, []>("Conv_21_bias_to_fp16"), val = tensor<fp16, [128]>(BLOBFILE(path = tensor<string, []>("@model_path/weights/weight.bin"), offset = tensor<uint64, []>(254720)))];
            tensor<fp16, [1, 128, 28, 28]> input_tensor_17_cast_fp16 = conv(bias = Conv_21_bias_to_fp16, dilations = input_tensor_17_dilations_0, groups = input_tensor_17_groups_0, pad = input_tensor_17_pad_0, pad_type = input_tensor_17_pad_type_0, strides = input_tensor_17_strides_0, weight = Conv_21_weight_to_fp16, x = input_21_cast_fp16)[name = tensor<string, []>("input_tensor_17_cast_fp16")];
            tensor<fp16, [128]> input_23_alpha_0_to_fp16 = const()[name = tensor<string, []>("input_23_alpha_0_to_fp16"), val = tensor<fp16, [128]>(BLOBFILE(path = tensor<string, []>("@model_path/weights/weight.bin"), offset = tensor<uint64, []>(255040)))];
            tensor<fp16, [1, 128, 28, 28]> input_23_cast_fp16 = prelu(alpha = input_23_alpha_0_to_fp16, x = input_tensor_17_cast_fp16)[name = tensor<string, []>("input_23_cast_fp16")];
            tensor<string, []> input_tensor_19_pad_type_0 = const()[name = tensor<string, []>("input_tensor_19_pad_type_0"), val = tensor<string, []>("custom")];
            tensor<int32, [4]> input_tensor_19_pad_0 = const()[name = tensor<string, []>("input_tensor_19_pad_0"), val = tensor<int32, [4]>([1, 1, 1, 1])];
            tensor<int32, []> input_tensor_19_groups_0 = const()[name = tensor<string, []>("input_tensor_19_groups_0"), val = tensor<int32, []>(128)];
            tensor<int32, [2]> input_tensor_19_strides_0 = const()[name = tensor<string, []>("input_tensor_19_strides_0"), val = tensor<int32, [2]>([1, 1])];
            tensor<int32, [2]> input_tensor_19_dilations_0 = const()[name = tensor<string, []>("input_tensor_19_dilations_0"), val = tensor<int32, [2]>([1, 1])];
            tensor<fp16, [128, 1, 3, 3]> Conv_23_weight_to_fp16 = const()[name = tensor<string, []>("Conv_23_weight_to_fp16"), val = tensor<fp16, [128, 1, 3, 3]>(BLOBFILE(path = tensor<string, []>("@model_path/weights/weight.bin"), offset = tensor<uint64, []>(255360)))];
            tensor<fp16, [128]> Conv_23_bias_to_fp16 = const()[name = tensor<string, []>("Conv_23_bias_to_fp16"), val = tensor<fp16, [128]>(BLOBFILE(path = tensor<string, []>("@model_path/weights/weight.bin"), offset = tensor<uint64, []>(257728)))];
            tensor<fp16, [1, 128, 28, 28]> input_tensor_19_cast_fp16 = conv(bias = Conv_23_bias_to_fp16, dilations = input_tensor_19_dilations_0, groups = input_tensor_19_groups_0, pad = input_tensor_19_pad_0, pad_type = input_tensor_19_pad_type_0, strides = input_tensor_19_strides_0, weight = Conv_23_weight_to_fp16, x = input_23_cast_fp16)[name = tensor<string, []>("input_tensor_19_cast_fp16")];
            tensor<fp16, [128]> input_25_alpha_0_to_fp16 = const()[name = tensor<string, []>("input_25_alpha_0_to_fp16"), val = tensor<fp16, [128]>(BLOBFILE(path = tensor<string, []>("@model_path/weights/weight.bin"), offset = tensor<uint64, []>(258048)))];
            tensor<fp16, [1, 128, 28, 28]> input_25_cast_fp16 = prelu(alpha = input_25_alpha_0_to_fp16, x = input_tensor_19_cast_fp16)[name = tensor<string, []>("input_25_cast_fp16")];
            tensor<string, []> second_5_pad_type_0 = const()[name = tensor<string, []>("second_5_pad_type_0"), val = tensor<string, []>("valid")];
            tensor<int32, [2]> second_5_strides_0 = const()[name = tensor<string, []>("second_5_strides_0"), val = tensor<int32, [2]>([1, 1])];
            tensor<int32, [4]> second_5_pad_0 = const()[name = tensor<string, []>("second_5_pad_0"), val = tensor<int32, [4]>([0, 0, 0, 0])];
            tensor<int32, [2]> second_5_dilations_0 = const()[name = tensor<string, []>("second_5_dilations_0"), val = tensor<int32, [2]>([1, 1])];
            tensor<int32, []> second_5_groups_0 = const()[name = tensor<string, []>("second_5_groups_0"), val = tensor<int32, []>(1)];
            tensor<fp16, [128, 128, 1, 1]> Conv_25_weight_to_fp16 = const()[name = tensor<string, []>("Conv_25_weight_to_fp16"), val = tensor<fp16, [128, 128, 1, 1]>(BLOBFILE(path = tensor<string, []>("@model_path/weights/weight.bin"), offset = tensor<uint64, []>(258368)))];
            tensor<fp16, [128]> Conv_25_bias_to_fp16 = const()[name = tensor<string, []>("Conv_25_bias_to_fp16"), val = tensor<fp16, [128]>(BLOBFILE(path = tensor<string, []>("@model_path/weights/weight.bin"), offset = tensor<uint64, []>(291200)))];
            tensor<fp16, [1, 128, 28, 28]> second_5_cast_fp16 = conv(bias = Conv_25_bias_to_fp16, dilations = second_5_dilations_0, groups = second_5_groups_0, pad = second_5_pad_0, pad_type = second_5_pad_type_0, strides = second_5_strides_0, weight = Conv_25_weight_to_fp16, x = input_25_cast_fp16)[name = tensor<string, []>("second_5_cast_fp16")];
            tensor<fp16, [1, 128, 28, 28]> input_27_cast_fp16 = add(x = input_21_cast_fp16, y = second_5_cast_fp16)[name = tensor<string, []>("input_27_cast_fp16")];
            tensor<string, []> input_tensor_21_pad_type_0 = const()[name = tensor<string, []>("input_tensor_21_pad_type_0"), val = tensor<string, []>("valid")];
            tensor<int32, [2]> input_tensor_21_strides_0 = const()[name = tensor<string, []>("input_tensor_21_strides_0"), val = tensor<int32, [2]>([1, 1])];
            tensor<int32, [4]> input_tensor_21_pad_0 = const()[name = tensor<string, []>("input_tensor_21_pad_0"), val = tensor<int32, [4]>([0, 0, 0, 0])];
            tensor<int32, [2]> input_tensor_21_dilations_0 = const()[name = tensor<string, []>("input_tensor_21_dilations_0"), val = tensor<int32, [2]>([1, 1])];
            tensor<int32, []> input_tensor_21_groups_0 = const()[name = tensor<string, []>("input_tensor_21_groups_0"), val = tensor<int32, []>(1)];
            tensor<fp16, [128, 128, 1, 1]> Conv_27_weight_to_fp16 = const()[name = tensor<string, []>("Conv_27_weight_to_fp16"), val = tensor<fp16, [128, 128, 1, 1]>(BLOBFILE(path = tensor<string, []>("@model_path/weights/weight.bin"), offset = tensor<uint64, []>(291520)))];
            tensor<fp16, [128]> Conv_27_bias_to_fp16 = const()[name = tensor<string, []>("Conv_27_bias_to_fp16"), val = tensor<fp16, [128]>(BLOBFILE(path = tensor<string, []>("@model_path/weights/weight.bin"), offset = tensor<uint64, []>(324352)))];
            tensor<fp16, [1, 128, 28, 28]> input_tensor_21_cast_fp16 = conv(bias = Conv_27_bias_to_fp16, dilations = input_tensor_21_dilations_0, groups = input_tensor_21_groups_0, pad = input_tensor_21_pad_0, pad_type = input_tensor_21_pad_type_0, strides = input_tensor_21_strides_0, weight = Conv_27_weight_to_fp16, x = input_27_cast_fp16)[name = tensor<string, []>("input_tensor_21_cast_fp16")];
            tensor<fp16, [128]> input_29_alpha_0_to_fp16 = const()[name = tensor<string, []>("input_29_alpha_0_to_fp16"), val = tensor<fp16, [128]>(BLOBFILE(path = tensor<string, []>("@model_path/weights/weight.bin"), offset = tensor<uint64, []>(324672)))];
            tensor<fp16, [1, 128, 28, 28]> input_29_cast_fp16 = prelu(alpha = input_29_alpha_0_to_fp16, x = input_tensor_21_cast_fp16)[name = tensor<string, []>("input_29_cast_fp16")];
            tensor<string, []> input_tensor_23_pad_type_0 = const()[name = tensor<string, []>("input_tensor_23_pad_type_0"), val = tensor<string, []>("custom")];
            tensor<int32, [4]> input_tensor_23_pad_0 = const()[name = tensor<string, []>("input_tensor_23_pad_0"), val = tensor<int32, [4]>([1, 1, 1, 1])];
            tensor<int32, []> input_tensor_23_groups_0 = const()[name = tensor<string, []>("input_tensor_23_groups_0"), val = tensor<int32, []>(128)];
            tensor<int32, [2]> input_tensor_23_strides_0 = const()[name = tensor<string, []>("input_tensor_23_strides_0"), val = tensor<int32, [2]>([1, 1])];
            tensor<int32, [2]> input_tensor_23_dilations_0 = const()[name = tensor<string, []>("input_tensor_23_dilations_0"), val = tensor<int32, [2]>([1, 1])];
            tensor<fp16, [128, 1, 3, 3]> Conv_29_weight_to_fp16 = const()[name = tensor<string, []>("Conv_29_weight_to_fp16"), val = tensor<fp16, [128, 1, 3, 3]>(BLOBFILE(path = tensor<string, []>("@model_path/weights/weight.bin"), offset = tensor<uint64, []>(324992)))];
            tensor<fp16, [128]> Conv_29_bias_to_fp16 = const()[name = tensor<string, []>("Conv_29_bias_to_fp16"), val = tensor<fp16, [128]>(BLOBFILE(path = tensor<string, []>("@model_path/weights/weight.bin"), offset = tensor<uint64, []>(327360)))];
            tensor<fp16, [1, 128, 28, 28]> input_tensor_23_cast_fp16 = conv(bias = Conv_29_bias_to_fp16, dilations = input_tensor_23_dilations_0, groups = input_tensor_23_groups_0, pad = input_tensor_23_pad_0, pad_type = input_tensor_23_pad_type_0, strides = input_tensor_23_strides_0, weight = Conv_29_weight_to_fp16, x = input_29_cast_fp16)[name = tensor<string, []>("input_tensor_23_cast_fp16")];
            tensor<fp16, [128]> input_31_alpha_0_to_fp16 = const()[name = tensor<string, []>("input_31_alpha_0_to_fp16"), val = tensor<fp16, [128]>(BLOBFILE(path = tensor<string, []>("@model_path/weights/weight.bin"), offset = tensor<uint64, []>(327680)))];
            tensor<fp16, [1, 128, 28, 28]> input_31_cast_fp16 = prelu(alpha = input_31_alpha_0_to_fp16, x = input_tensor_23_cast_fp16)[name = tensor<string, []>("input_31_cast_fp16")];
            tensor<string, []> second_7_pad_type_0 = const()[name = tensor<string, []>("second_7_pad_type_0"), val = tensor<string, []>("valid")];
            tensor<int32, [2]> second_7_strides_0 = const()[name = tensor<string, []>("second_7_strides_0"), val = tensor<int32, [2]>([1, 1])];
            tensor<int32, [4]> second_7_pad_0 = const()[name = tensor<string, []>("second_7_pad_0"), val = tensor<int32, [4]>([0, 0, 0, 0])];
            tensor<int32, [2]> second_7_dilations_0 = const()[name = tensor<string, []>("second_7_dilations_0"), val = tensor<int32, [2]>([1, 1])];
            tensor<int32, []> second_7_groups_0 = const()[name = tensor<string, []>("second_7_groups_0"), val = tensor<int32, []>(1)];
            tensor<fp16, [128, 128, 1, 1]> Conv_31_weight_to_fp16 = const()[name = tensor<string, []>("Conv_31_weight_to_fp16"), val = tensor<fp16, [128, 128, 1, 1]>(BLOBFILE(path = tensor<string, []>("@model_path/weights/weight.bin"), offset = tensor<uint64, []>(328000)))];
            tensor<fp16, [128]> Conv_31_bias_to_fp16 = const()[name = tensor<string, []>("Conv_31_bias_to_fp16"), val = tensor<fp16, [128]>(BLOBFILE(path = tensor<string, []>("@model_path/weights/weight.bin"), offset = tensor<uint64, []>(360832)))];
            tensor<fp16, [1, 128, 28, 28]> second_7_cast_fp16 = conv(bias = Conv_31_bias_to_fp16, dilations = second_7_dilations_0, groups = second_7_groups_0, pad = second_7_pad_0, pad_type = second_7_pad_type_0, strides = second_7_strides_0, weight = Conv_31_weight_to_fp16, x = input_31_cast_fp16)[name = tensor<string, []>("second_7_cast_fp16")];
            tensor<fp16, [1, 128, 28, 28]> input_33_cast_fp16 = add(x = input_27_cast_fp16, y = second_7_cast_fp16)[name = tensor<string, []>("input_33_cast_fp16")];
            tensor<string, []> input_tensor_25_pad_type_0 = const()[name = tensor<string, []>("input_tensor_25_pad_type_0"), val = tensor<string, []>("valid")];
            tensor<int32, [2]> input_tensor_25_strides_0 = const()[name = tensor<string, []>("input_tensor_25_strides_0"), val = tensor<int32, [2]>([1, 1])];
            tensor<int32, [4]> input_tensor_25_pad_0 = const()[name = tensor<string, []>("input_tensor_25_pad_0"), val = tensor<int32, [4]>([0, 0, 0, 0])];
            tensor<int32, [2]> input_tensor_25_dilations_0 = const()[name = tensor<string, []>("input_tensor_25_dilations_0"), val = tensor<int32, [2]>([1, 1])];
            tensor<int32, []> input_tensor_25_groups_0 = const()[name = tensor<string, []>("input_tensor_25_groups_0"), val = tensor<int32, []>(1)];
            tensor<fp16, [256, 128, 1, 1]> Conv_33_weight_to_fp16 = const()[name = tensor<string, []>("Conv_33_weight_to_fp16"), val = tensor<fp16, [256, 128, 1, 1]>(BLOBFILE(path = tensor<string, []>("@model_path/weights/weight.bin"), offset = tensor<uint64, []>(361152)))];
            tensor<fp16, [256]> Conv_33_bias_to_fp16 = const()[name = tensor<string, []>("Conv_33_bias_to_fp16"), val = tensor<fp16, [256]>(BLOBFILE(path = tensor<string, []>("@model_path/weights/weight.bin"), offset = tensor<uint64, []>(426752)))];
            tensor<fp16, [1, 256, 28, 28]> input_tensor_25_cast_fp16 = conv(bias = Conv_33_bias_to_fp16, dilations = input_tensor_25_dilations_0, groups = input_tensor_25_groups_0, pad = input_tensor_25_pad_0, pad_type = input_tensor_25_pad_type_0, strides = input_tensor_25_strides_0, weight = Conv_33_weight_to_fp16, x = input_33_cast_fp16)[name = tensor<string, []>("input_tensor_25_cast_fp16")];
            tensor<fp16, [256]> input_35_alpha_0_to_fp16 = const()[name = tensor<string, []>("input_35_alpha_0_to_fp16"), val = tensor<fp16, [256]>(BLOBFILE(path = tensor<string, []>("@model_path/weights/weight.bin"), offset = tensor<uint64, []>(427328)))];
            tensor<fp16, [1, 256, 28, 28]> input_35_cast_fp16 = prelu(alpha = input_35_alpha_0_to_fp16, x = input_tensor_25_cast_fp16)[name = tensor<string, []>("input_35_cast_fp16")];
            tensor<string, []> input_tensor_27_pad_type_0 = const()[name = tensor<string, []>("input_tensor_27_pad_type_0"), val = tensor<string, []>("custom")];
            tensor<int32, [4]> input_tensor_27_pad_0 = const()[name = tensor<string, []>("input_tensor_27_pad_0"), val = tensor<int32, [4]>([1, 1, 1, 1])];
            tensor<int32, [2]> input_tensor_27_strides_0 = const()[name = tensor<string, []>("input_tensor_27_strides_0"), val = tensor<int32, [2]>([2, 2])];
            tensor<int32, []> input_tensor_27_groups_0 = const()[name = tensor<string, []>("input_tensor_27_groups_0"), val = tensor<int32, []>(256)];
            tensor<int32, [2]> input_tensor_27_dilations_0 = const()[name = tensor<string, []>("input_tensor_27_dilations_0"), val = tensor<int32, [2]>([1, 1])];
            tensor<fp16, [256, 1, 3, 3]> Conv_35_weight_to_fp16 = const()[name = tensor<string, []>("Conv_35_weight_to_fp16"), val = tensor<fp16, [256, 1, 3, 3]>(BLOBFILE(path = tensor<string, []>("@model_path/weights/weight.bin"), offset = tensor<uint64, []>(427904)))];
            tensor<fp16, [256]> Conv_35_bias_to_fp16 = const()[name = tensor<string, []>("Conv_35_bias_to_fp16"), val = tensor<fp16, [256]>(BLOBFILE(path = tensor<string, []>("@model_path/weights/weight.bin"), offset = tensor<uint64, []>(432576)))];
            tensor<fp16, [1, 256, 14, 14]> input_tensor_27_cast_fp16 = conv(bias = Conv_35_bias_to_fp16, dilations = input_tensor_27_dilations_0, groups = input_tensor_27_groups_0, pad = input_tensor_27_pad_0, pad_type = input_tensor_27_pad_type_0, strides = input_tensor_27_strides_0, weight = Conv_35_weight_to_fp16, x = input_35_cast_fp16)[name = tensor<string, []>("input_tensor_27_cast_fp16")];
            tensor<fp16, [256]> input_37_alpha_0_to_fp16 = const()[name = tensor<string, []>("input_37_alpha_0_to_fp16"), val = tensor<fp16, [256]>(BLOBFILE(path = tensor<string, []>("@model_path/weights/weight.bin"), offset = tensor<uint64, []>(433152)))];
            tensor<fp16, [1, 256, 14, 14]> input_37_cast_fp16 = prelu(alpha = input_37_alpha_0_to_fp16, x = input_tensor_27_cast_fp16)[name = tensor<string, []>("input_37_cast_fp16")];
            tensor<string, []> input_39_pad_type_0 = const()[name = tensor<string, []>("input_39_pad_type_0"), val = tensor<string, []>("valid")];
            tensor<int32, [2]> input_39_strides_0 = const()[name = tensor<string, []>("input_39_strides_0"), val = tensor<int32, [2]>([1, 1])];
            tensor<int32, [4]> input_39_pad_0 = const()[name = tensor<string, []>("input_39_pad_0"), val = tensor<int32, [4]>([0, 0, 0, 0])];
            tensor<int32, [2]> input_39_dilations_0 = const()[name = tensor<string, []>("input_39_dilations_0"), val = tensor<int32, [2]>([1, 1])];
            tensor<int32, []> input_39_groups_0 = const()[name = tensor<string, []>("input_39_groups_0"), val = tensor<int32, []>(1)];
            tensor<fp16, [256, 256, 1, 1]> Conv_37_weight_to_fp16 = const()[name = tensor<string, []>("Conv_37_weight_to_fp16"), val = tensor<fp16, [256, 256, 1, 1]>(BLOBFILE(path = tensor<string, []>("@model_path/weights/weight.bin"), offset = tensor<uint64, []>(433728)))];
            tensor<fp16, [256]> Conv_37_bias_to_fp16 = const()[name = tensor<string, []>("Conv_37_bias_to_fp16"), val = tensor<fp16, [256]>(BLOBFILE(path = tensor<string, []>("@model_path/weights/weight.bin"), offset = tensor<uint64, []>(564864)))];
            tensor<fp16, [1, 256, 14, 14]> input_39_cast_fp16 = conv(bias = Conv_37_bias_to_fp16, dilations = input_39_dilations_0, groups = input_39_groups_0, pad = input_39_pad_0, pad_type = input_39_pad_type_0, strides = input_39_strides_0, weight = Conv_37_weight_to_fp16, x = input_37_cast_fp16)[name = tensor<string, []>("input_39_cast_fp16")];
            tensor<string, []> input_tensor_29_pad_type_0 = const()[name = tensor<string, []>("input_tensor_29_pad_type_0"), val = tensor<string, []>("valid")];
            tensor<int32, [2]> input_tensor_29_strides_0 = const()[name = tensor<string, []>("input_tensor_29_strides_0"), val = tensor<int32, [2]>([1, 1])];
            tensor<int32, [4]> input_tensor_29_pad_0 = const()[name = tensor<string, []>("input_tensor_29_pad_0"), val = tensor<int32, [4]>([0, 0, 0, 0])];
            tensor<int32, [2]> input_tensor_29_dilations_0 = const()[name = tensor<string, []>("input_tensor_29_dilations_0"), val = tensor<int32, [2]>([1, 1])];
            tensor<int32, []> input_tensor_29_groups_0 = const()[name = tensor<string, []>("input_tensor_29_groups_0"), val = tensor<int32, []>(1)];
            tensor<fp16, [256, 256, 1, 1]> Conv_38_weight_to_fp16 = const()[name = tensor<string, []>("Conv_38_weight_to_fp16"), val = tensor<fp16, [256, 256, 1, 1]>(BLOBFILE(path = tensor<string, []>("@model_path/weights/weight.bin"), offset = tensor<uint64, []>(565440)))];
            tensor<fp16, [256]> Conv_38_bias_to_fp16 = const()[name = tensor<string, []>("Conv_38_bias_to_fp16"), val = tensor<fp16, [256]>(BLOBFILE(path = tensor<string, []>("@model_path/weights/weight.bin"), offset = tensor<uint64, []>(696576)))];
            tensor<fp16, [1, 256, 14, 14]> input_tensor_29_cast_fp16 = conv(bias = Conv_38_bias_to_fp16, dilations = input_tensor_29_dilations_0, groups = input_tensor_29_groups_0, pad = input_tensor_29_pad_0, pad_type = input_tensor_29_pad_type_0, strides = input_tensor_29_strides_0, weight = Conv_38_weight_to_fp16, x = input_39_cast_fp16)[name = tensor<string, []>("input_tensor_29_cast_fp16")];
            tensor<fp16, [256]> input_41_alpha_0_to_fp16 = const()[name = tensor<string, []>("input_41_alpha_0_to_fp16"), val = tensor<fp16, [256]>(BLOBFILE(path = tensor<string, []>("@model_path/weights/weight.bin"), offset = tensor<uint64, []>(697152)))];
            tensor<fp16, [1, 256, 14, 14]> input_41_cast_fp16 = prelu(alpha = input_41_alpha_0_to_fp16, x = input_tensor_29_cast_fp16)[name = tensor<string, []>("input_41_cast_fp16")];
            tensor<string, []> input_tensor_31_pad_type_0 = const()[name = tensor<string, []>("input_tensor_31_pad_type_0"), val = tensor<string, []>("custom")];
            tensor<int32, [4]> input_tensor_31_pad_0 = const()[name = tensor<string, []>("input_tensor_31_pad_0"), val = tensor<int32, [4]>([1, 1, 1, 1])];
            tensor<int32, []> input_tensor_31_groups_0 = const()[name = tensor<string, []>("input_tensor_31_groups_0"), val = tensor<int32, []>(256)];
            tensor<int32, [2]> input_tensor_31_strides_0 = const()[name = tensor<string, []>("input_tensor_31_strides_0"), val = tensor<int32, [2]>([1, 1])];
            tensor<int32, [2]> input_tensor_31_dilations_0 = const()[name = tensor<string, []>("input_tensor_31_dilations_0"), val = tensor<int32, [2]>([1, 1])];
            tensor<fp16, [256, 1, 3, 3]> Conv_40_weight_to_fp16 = const()[name = tensor<string, []>("Conv_40_weight_to_fp16"), val = tensor<fp16, [256, 1, 3, 3]>(BLOBFILE(path = tensor<string, []>("@model_path/weights/weight.bin"), offset = tensor<uint64, []>(697728)))];
            tensor<fp16, [256]> Conv_40_bias_to_fp16 = const()[name = tensor<string, []>("Conv_40_bias_to_fp16"), val = tensor<fp16, [256]>(BLOBFILE(path = tensor<string, []>("@model_path/weights/weight.bin"), offset = tensor<uint64, []>(702400)))];
            tensor<fp16, [1, 256, 14, 14]> input_tensor_31_cast_fp16 = conv(bias = Conv_40_bias_to_fp16, dilations = input_tensor_31_dilations_0, groups = input_tensor_31_groups_0, pad = input_tensor_31_pad_0, pad_type = input_tensor_31_pad_type_0, strides = input_tensor_31_strides_0, weight = Conv_40_weight_to_fp16, x = input_41_cast_fp16)[name = tensor<string, []>("input_tensor_31_cast_fp16")];
            tensor<fp16, [256]> input_43_alpha_0_to_fp16 = const()[name = tensor<string, []>("input_43_alpha_0_to_fp16"), val = tensor<fp16, [256]>(BLOBFILE(path = tensor<string, []>("@model_path/weights/weight.bin"), offset = tensor<uint64, []>(702976)))];
            tensor<fp16, [1, 256, 14, 14]> input_43_cast_fp16 = prelu(alpha = input_43_alpha_0_to_fp16, x = input_tensor_31_cast_fp16)[name = tensor<string, []>("input_43_cast_fp16")];
            tensor<string, []> second_9_pad_type_0 = const()[name = tensor<string, []>("second_9_pad_type_0"), val = tensor<string, []>("valid")];
            tensor<int32, [2]> second_9_strides_0 = const()[name = tensor<string, []>("second_9_strides_0"), val = tensor<int32, [2]>([1, 1])];
            tensor<int32, [4]> second_9_pad_0 = const()[name = tensor<string, []>("second_9_pad_0"), val = tensor<int32, [4]>([0, 0, 0, 0])];
            tensor<int32, [2]> second_9_dilations_0 = const()[name = tensor<string, []>("second_9_dilations_0"), val = tensor<int32, [2]>([1, 1])];
            tensor<int32, []> second_9_groups_0 = const()[name = tensor<string, []>("second_9_groups_0"), val = tensor<int32, []>(1)];
            tensor<fp16, [256, 256, 1, 1]> Conv_42_weight_to_fp16 = const()[name = tensor<string, []>("Conv_42_weight_to_fp16"), val = tensor<fp16, [256, 256, 1, 1]>(BLOBFILE(path = tensor<string, []>("@model_path/weights/weight.bin"), offset = tensor<uint64, []>(703552)))];
            tensor<fp16, [256]> Conv_42_bias_to_fp16 = const()[name = tensor<string, []>("Conv_42_bias_to_fp16"), val = tensor<fp16, [256]>(BLOBFILE(path = tensor<string, []>("@model_path/weights/weight.bin"), offset = tensor<uint64, []>(834688)))];
            tensor<fp16, [1, 256, 14, 14]> second_9_cast_fp16 = conv(bias = Conv_42_bias_to_fp16, dilations = second_9_dilations_0, groups = second_9_groups_0, pad = second_9_pad_0, pad_type = second_9_pad_type_0, strides = second_9_strides_0, weight = Conv_42_weight_to_fp16, x = input_43_cast_fp16)[name = tensor<string, []>("second_9_cast_fp16")];
            tensor<fp16, [1, 256, 14, 14]> input_45_cast_fp16 = add(x = input_39_cast_fp16, y = second_9_cast_fp16)[name = tensor<string, []>("input_45_cast_fp16")];
            tensor<string, []> input_tensor_33_pad_type_0 = const()[name = tensor<string, []>("input_tensor_33_pad_type_0"), val = tensor<string, []>("valid")];
            tensor<int32, [2]> input_tensor_33_strides_0 = const()[name = tensor<string, []>("input_tensor_33_strides_0"), val = tensor<int32, [2]>([1, 1])];
            tensor<int32, [4]> input_tensor_33_pad_0 = const()[name = tensor<string, []>("input_tensor_33_pad_0"), val = tensor<int32, [4]>([0, 0, 0, 0])];
            tensor<int32, [2]> input_tensor_33_dilations_0 = const()[name = tensor<string, []>("input_tensor_33_dilations_0"), val = tensor<int32, [2]>([1, 1])];
            tensor<int32, []> input_tensor_33_groups_0 = const()[name = tensor<string, []>("input_tensor_33_groups_0"), val = tensor<int32, []>(1)];
            tensor<fp16, [256, 256, 1, 1]> Conv_44_weight_to_fp16 = const()[name = tensor<string, []>("Conv_44_weight_to_fp16"), val = tensor<fp16, [256, 256, 1, 1]>(BLOBFILE(path = tensor<string, []>("@model_path/weights/weight.bin"), offset = tensor<uint64, []>(835264)))];
            tensor<fp16, [256]> Conv_44_bias_to_fp16 = const()[name = tensor<string, []>("Conv_44_bias_to_fp16"), val = tensor<fp16, [256]>(BLOBFILE(path = tensor<string, []>("@model_path/weights/weight.bin"), offset = tensor<uint64, []>(966400)))];
            tensor<fp16, [1, 256, 14, 14]> input_tensor_33_cast_fp16 = conv(bias = Conv_44_bias_to_fp16, dilations = input_tensor_33_dilations_0, groups = input_tensor_33_groups_0, pad = input_tensor_33_pad_0, pad_type = input_tensor_33_pad_type_0, strides = input_tensor_33_strides_0, weight = Conv_44_weight_to_fp16, x = input_45_cast_fp16)[name = tensor<string, []>("input_tensor_33_cast_fp16")];
            tensor<fp16, [256]> input_47_alpha_0_to_fp16 = const()[name = tensor<string, []>("input_47_alpha_0_to_fp16"), val = tensor<fp16, [256]>(BLOBFILE(path = tensor<string, []>("@model_path/weights/weight.bin"), offset = tensor<uint64, []>(966976)))];
            tensor<fp16, [1, 256, 14, 14]> input_47_cast_fp16 = prelu(alpha = input_47_alpha_0_to_fp16, x = input_tensor_33_cast_fp16)[name = tensor<string, []>("input_47_cast_fp16")];
            tensor<string, []> input_tensor_35_pad_type_0 = const()[name = tensor<string, []>("input_tensor_35_pad_type_0"), val = tensor<string, []>("custom")];
            tensor<int32, [4]> input_tensor_35_pad_0 = const()[name = tensor<string, []>("input_tensor_35_pad_0"), val = tensor<int32, [4]>([1, 1, 1, 1])];
            tensor<int32, []> input_tensor_35_groups_0 = const()[name = tensor<string, []>("input_tensor_35_groups_0"), val = tensor<int32, []>(256)];
            tensor<int32, [2]> input_tensor_35_strides_0 = const()[name = tensor<string, []>("input_tensor_35_strides_0"), val = tensor<int32, [2]>([1, 1])];
            tensor<int32, [2]> input_tensor_35_dilations_0 = const()[name = tensor<string, []>("input_tensor_35_dilations_0"), val = tensor<int32, [2]>([1, 1])];
            tensor<fp16, [256, 1, 3, 3]> Conv_46_weight_to_fp16 = const()[name = tensor<string, []>("Conv_46_weight_to_fp16"), val = tensor<fp16, [256, 1, 3, 3]>(BLOBFILE(path = tensor<string, []>("@model_path/weights/weight.bin"), offset = tensor<uint64, []>(967552)))];
            tensor<fp16, [256]> Conv_46_bias_to_fp16 = const()[name = tensor<string, []>("Conv_46_bias_to_fp16"), val = tensor<fp16, [256]>(BLOBFILE(path = tensor<string, []>("@model_path/weights/weight.bin"), offset = tensor<uint64, []>(972224)))];
            tensor<fp16, [1, 256, 14, 14]> input_tensor_35_cast_fp16 = conv(bias = Conv_46_bias_to_fp16, dilations = input_tensor_35_dilations_0, groups = input_tensor_35_groups_0, pad = input_tensor_35_pad_0, pad_type = input_tensor_35_pad_type_0, strides = input_tensor_35_strides_0, weight = Conv_46_weight_to_fp16, x = input_47_cast_fp16)[name = tensor<string, []>("input_tensor_35_cast_fp16")];
            tensor<fp16, [256]> input_49_alpha_0_to_fp16 = const()[name = tensor<string, []>("input_49_alpha_0_to_fp16"), val = tensor<fp16, [256]>(BLOBFILE(path = tensor<string, []>("@model_path/weights/weight.bin"), offset = tensor<uint64, []>(972800)))];
            tensor<fp16, [1, 256, 14, 14]> input_49_cast_fp16 = prelu(alpha = input_49_alpha_0_to_fp16, x = input_tensor_35_cast_fp16)[name = tensor<string, []>("input_49_cast_fp16")];
            tensor<string, []> second_11_pad_type_0 = const()[name = tensor<string, []>("second_11_pad_type_0"), val = tensor<string, []>("valid")];
            tensor<int32, [2]> second_11_strides_0 = const()[name = tensor<string, []>("second_11_strides_0"), val = tensor<int32, [2]>([1, 1])];
            tensor<int32, [4]> second_11_pad_0 = const()[name = tensor<string, []>("second_11_pad_0"), val = tensor<int32, [4]>([0, 0, 0, 0])];
            tensor<int32, [2]> second_11_dilations_0 = const()[name = tensor<string, []>("second_11_dilations_0"), val = tensor<int32, [2]>([1, 1])];
            tensor<int32, []> second_11_groups_0 = const()[name = tensor<string, []>("second_11_groups_0"), val = tensor<int32, []>(1)];
            tensor<fp16, [256, 256, 1, 1]> Conv_48_weight_to_fp16 = const()[name = tensor<string, []>("Conv_48_weight_to_fp16"), val = tensor<fp16, [256, 256, 1, 1]>(BLOBFILE(path = tensor<string, []>("@model_path/weights/weight.bin"), offset = tensor<uint64, []>(973376)))];
            tensor<fp16, [256]> Conv_48_bias_to_fp16 = const()[name = tensor<string, []>("Conv_48_bias_to_fp16"), val = tensor<fp16, [256]>(BLOBFILE(path = tensor<string, []>("@model_path/weights/weight.bin"), offset = tensor<uint64, []>(1104512)))];
            tensor<fp16, [1, 256, 14, 14]> second_11_cast_fp16 = conv(bias = Conv_48_bias_to_fp16, dilations = second_11_dilations_0, groups = second_11_groups_0, pad = second_11_pad_0, pad_type = second_11_pad_type_0, strides = second_11_strides_0, weight = Conv_48_weight_to_fp16, x = input_49_cast_fp16)[name = tensor<string, []>("second_11_cast_fp16")];
            tensor<fp16, [1, 256, 14, 14]> input_51_cast_fp16 = add(x = input_45_cast_fp16, y = second_11_cast_fp16)[name = tensor<string, []>("input_51_cast_fp16")];
            tensor<string, []> input_tensor_37_pad_type_0 = const()[name = tensor<string, []>("input_tensor_37_pad_type_0"), val = tensor<string, []>("valid")];
            tensor<int32, [2]> input_tensor_37_strides_0 = const()[name = tensor<string, []>("input_tensor_37_strides_0"), val = tensor<int32, [2]>([1, 1])];
            tensor<int32, [4]> input_tensor_37_pad_0 = const()[name = tensor<string, []>("input_tensor_37_pad_0"), val = tensor<int32, [4]>([0, 0, 0, 0])];
            tensor<int32, [2]> input_tensor_37_dilations_0 = const()[name = tensor<string, []>("input_tensor_37_dilations_0"), val = tensor<int32, [2]>([1, 1])];
            tensor<int32, []> input_tensor_37_groups_0 = const()[name = tensor<string, []>("input_tensor_37_groups_0"), val = tensor<int32, []>(1)];
            tensor<fp16, [256, 256, 1, 1]> Conv_50_weight_to_fp16 = const()[name = tensor<string, []>("Conv_50_weight_to_fp16"), val = tensor<fp16, [256, 256, 1, 1]>(BLOBFILE(path = tensor<string, []>("@model_path/weights/weight.bin"), offset = tensor<uint64, []>(1105088)))];
            tensor<fp16, [256]> Conv_50_bias_to_fp16 = const()[name = tensor<string, []>("Conv_50_bias_to_fp16"), val = tensor<fp16, [256]>(BLOBFILE(path = tensor<string, []>("@model_path/weights/weight.bin"), offset = tensor<uint64, []>(1236224)))];
            tensor<fp16, [1, 256, 14, 14]> input_tensor_37_cast_fp16 = conv(bias = Conv_50_bias_to_fp16, dilations = input_tensor_37_dilations_0, groups = input_tensor_37_groups_0, pad = input_tensor_37_pad_0, pad_type = input_tensor_37_pad_type_0, strides = input_tensor_37_strides_0, weight = Conv_50_weight_to_fp16, x = input_51_cast_fp16)[name = tensor<string, []>("input_tensor_37_cast_fp16")];
            tensor<fp16, [256]> input_53_alpha_0_to_fp16 = const()[name = tensor<string, []>("input_53_alpha_0_to_fp16"), val = tensor<fp16, [256]>(BLOBFILE(path = tensor<string, []>("@model_path/weights/weight.bin"), offset = tensor<uint64, []>(1236800)))];
            tensor<fp16, [1, 256, 14, 14]> input_53_cast_fp16 = prelu(alpha = input_53_alpha_0_to_fp16, x = input_tensor_37_cast_fp16)[name = tensor<string, []>("input_53_cast_fp16")];
            tensor<string, []> input_tensor_39_pad_type_0 = const()[name = tensor<string, []>("input_tensor_39_pad_type_0"), val = tensor<string, []>("custom")];
            tensor<int32, [4]> input_tensor_39_pad_0 = const()[name = tensor<string, []>("input_tensor_39_pad_0"), val = tensor<int32, [4]>([1, 1, 1, 1])];
            tensor<int32, []> input_tensor_39_groups_0 = const()[name = tensor<string, []>("input_tensor_39_groups_0"), val = tensor<int32, []>(256)];
            tensor<int32, [2]> input_tensor_39_strides_0 = const()[name = tensor<string, []>("input_tensor_39_strides_0"), val = tensor<int32, [2]>([1, 1])];
            tensor<int32, [2]> input_tensor_39_dilations_0 = const()[name = tensor<string, []>("input_tensor_39_dilations_0"), val = tensor<int32, [2]>([1, 1])];
            tensor<fp16, [256, 1, 3, 3]> Conv_52_weight_to_fp16 = const()[name = tensor<string, []>("Conv_52_weight_to_fp16"), val = tensor<fp16, [256, 1, 3, 3]>(BLOBFILE(path = tensor<string, []>("@model_path/weights/weight.bin"), offset = tensor<uint64, []>(1237376)))];
            tensor<fp16, [256]> Conv_52_bias_to_fp16 = const()[name = tensor<string, []>("Conv_52_bias_to_fp16"), val = tensor<fp16, [256]>(BLOBFILE(path = tensor<string, []>("@model_path/weights/weight.bin"), offset = tensor<uint64, []>(1242048)))];
            tensor<fp16, [1, 256, 14, 14]> input_tensor_39_cast_fp16 = conv(bias = Conv_52_bias_to_fp16, dilations = input_tensor_39_dilations_0, groups = input_tensor_39_groups_0, pad = input_tensor_39_pad_0, pad_type = input_tensor_39_pad_type_0, strides = input_tensor_39_strides_0, weight = Conv_52_weight_to_fp16, x = input_53_cast_fp16)[name = tensor<string, []>("input_tensor_39_cast_fp16")];
            tensor<fp16, [256]> input_55_alpha_0_to_fp16 = const()[name = tensor<string, []>("input_55_alpha_0_to_fp16"), val = tensor<fp16, [256]>(BLOBFILE(path = tensor<string, []>("@model_path/weights/weight.bin"), offset = tensor<uint64, []>(1242624)))];
            tensor<fp16, [1, 256, 14, 14]> input_55_cast_fp16 = prelu(alpha = input_55_alpha_0_to_fp16, x = input_tensor_39_cast_fp16)[name = tensor<string, []>("input_55_cast_fp16")];
            tensor<string, []> second_13_pad_type_0 = const()[name = tensor<string, []>("second_13_pad_type_0"), val = tensor<string, []>("valid")];
            tensor<int32, [2]> second_13_strides_0 = const()[name = tensor<string, []>("second_13_strides_0"), val = tensor<int32, [2]>([1, 1])];
            tensor<int32, [4]> second_13_pad_0 = const()[name = tensor<string, []>("second_13_pad_0"), val = tensor<int32, [4]>([0, 0, 0, 0])];
            tensor<int32, [2]> second_13_dilations_0 = const()[name = tensor<string, []>("second_13_dilations_0"), val = tensor<int32, [2]>([1, 1])];
            tensor<int32, []> second_13_groups_0 = const()[name = tensor<string, []>("second_13_groups_0"), val = tensor<int32, []>(1)];
            tensor<fp16, [256, 256, 1, 1]> Conv_54_weight_to_fp16 = const()[name = tensor<string, []>("Conv_54_weight_to_fp16"), val = tensor<fp16, [256, 256, 1, 1]>(BLOBFILE(path = tensor<string, []>("@model_path/weights/weight.bin"), offset = tensor<uint64, []>(1243200)))];
            tensor<fp16, [256]> Conv_54_bias_to_fp16 = const()[name = tensor<string, []>("Conv_54_bias_to_fp16"), val = tensor<fp16, [256]>(BLOBFILE(path = tensor<string, []>("@model_path/weights/weight.bin"), offset = tensor<uint64, []>(1374336)))];
            tensor<fp16, [1, 256, 14, 14]> second_13_cast_fp16 = conv(bias = Conv_54_bias_to_fp16, dilations = second_13_dilations_0, groups = second_13_groups_0, pad = second_13_pad_0, pad_type = second_13_pad_type_0, strides = second_13_strides_0, weight = Conv_54_weight_to_fp16, x = input_55_cast_fp16)[name = tensor<string, []>("second_13_cast_fp16")];
            tensor<fp16, [1, 256, 14, 14]> input_57_cast_fp16 = add(x = input_51_cast_fp16, y = second_13_cast_fp16)[name = tensor<string, []>("input_57_cast_fp16")];
            tensor<string, []> input_tensor_41_pad_type_0 = const()[name = tensor<string, []>("input_tensor_41_pad_type_0"), val = tensor<string, []>("valid")];
            tensor<int32, [2]> input_tensor_41_strides_0 = const()[name = tensor<string, []>("input_tensor_41_strides_0"), val = tensor<int32, [2]>([1, 1])];
            tensor<int32, [4]> input_tensor_41_pad_0 = const()[name = tensor<string, []>("input_tensor_41_pad_0"), val = tensor<int32, [4]>([0, 0, 0, 0])];
            tensor<int32, [2]> input_tensor_41_dilations_0 = const()[name = tensor<string, []>("input_tensor_41_dilations_0"), val = tensor<int32, [2]>([1, 1])];
            tensor<int32, []> input_tensor_41_groups_0 = const()[name = tensor<string, []>("input_tensor_41_groups_0"), val = tensor<int32, []>(1)];
            tensor<fp16, [256, 256, 1, 1]> Conv_56_weight_to_fp16 = const()[name = tensor<string, []>("Conv_56_weight_to_fp16"), val = tensor<fp16, [256, 256, 1, 1]>(BLOBFILE(path = tensor<string, []>("@model_path/weights/weight.bin"), offset = tensor<uint64, []>(1374912)))];
            tensor<fp16, [256]> Conv_56_bias_to_fp16 = const()[name = tensor<string, []>("Conv_56_bias_to_fp16"), val = tensor<fp16, [256]>(BLOBFILE(path = tensor<string, []>("@model_path/weights/weight.bin"), offset = tensor<uint64, []>(1506048)))];
            tensor<fp16, [1, 256, 14, 14]> input_tensor_41_cast_fp16 = conv(bias = Conv_56_bias_to_fp16, dilations = input_tensor_41_dilations_0, groups = input_tensor_41_groups_0, pad = input_tensor_41_pad_0, pad_type = input_tensor_41_pad_type_0, strides = input_tensor_41_strides_0, weight = Conv_56_weight_to_fp16, x = input_57_cast_fp16)[name = tensor<string, []>("input_tensor_41_cast_fp16")];
            tensor<fp16, [256]> input_59_alpha_0_to_fp16 = const()[name = tensor<string, []>("input_59_alpha_0_to_fp16"), val = tensor<fp16, [256]>(BLOBFILE(path = tensor<string, []>("@model_path/weights/weight.bin"), offset = tensor<uint64, []>(1506624)))];
            tensor<fp16, [1, 256, 14, 14]> input_59_cast_fp16 = prelu(alpha = input_59_alpha_0_to_fp16, x = input_tensor_41_cast_fp16)[name = tensor<string, []>("input_59_cast_fp16")];
            tensor<string, []> input_tensor_43_pad_type_0 = const()[name = tensor<string, []>("input_tensor_43_pad_type_0"), val = tensor<string, []>("custom")];
            tensor<int32, [4]> input_tensor_43_pad_0 = const()[name = tensor<string, []>("input_tensor_43_pad_0"), val = tensor<int32, [4]>([1, 1, 1, 1])];
            tensor<int32, []> input_tensor_43_groups_0 = const()[name = tensor<string, []>("input_tensor_43_groups_0"), val = tensor<int32, []>(256)];
            tensor<int32, [2]> input_tensor_43_strides_0 = const()[name = tensor<string, []>("input_tensor_43_strides_0"), val = tensor<int32, [2]>([1, 1])];
            tensor<int32, [2]> input_tensor_43_dilations_0 = const()[name = tensor<string, []>("input_tensor_43_dilations_0"), val = tensor<int32, [2]>([1, 1])];
            tensor<fp16, [256, 1, 3, 3]> Conv_58_weight_to_fp16 = const()[name = tensor<string, []>("Conv_58_weight_to_fp16"), val = tensor<fp16, [256, 1, 3, 3]>(BLOBFILE(path = tensor<string, []>("@model_path/weights/weight.bin"), offset = tensor<uint64, []>(1507200)))];
            tensor<fp16, [256]> Conv_58_bias_to_fp16 = const()[name = tensor<string, []>("Conv_58_bias_to_fp16"), val = tensor<fp16, [256]>(BLOBFILE(path = tensor<string, []>("@model_path/weights/weight.bin"), offset = tensor<uint64, []>(1511872)))];
            tensor<fp16, [1, 256, 14, 14]> input_tensor_43_cast_fp16 = conv(bias = Conv_58_bias_to_fp16, dilations = input_tensor_43_dilations_0, groups = input_tensor_43_groups_0, pad = input_tensor_43_pad_0, pad_type = input_tensor_43_pad_type_0, strides = input_tensor_43_strides_0, weight = Conv_58_weight_to_fp16, x = input_59_cast_fp16)[name = tensor<string, []>("input_tensor_43_cast_fp16")];
            tensor<fp16, [256]> input_61_alpha_0_to_fp16 = const()[name = tensor<string, []>("input_61_alpha_0_to_fp16"), val = tensor<fp16, [256]>(BLOBFILE(path = tensor<string, []>("@model_path/weights/weight.bin"), offset = tensor<uint64, []>(1512448)))];
            tensor<fp16, [1, 256, 14, 14]> input_61_cast_fp16 = prelu(alpha = input_61_alpha_0_to_fp16, x = input_tensor_43_cast_fp16)[name = tensor<string, []>("input_61_cast_fp16")];
            tensor<string, []> second_15_pad_type_0 = const()[name = tensor<string, []>("second_15_pad_type_0"), val = tensor<string, []>("valid")];
            tensor<int32, [2]> second_15_strides_0 = const()[name = tensor<string, []>("second_15_strides_0"), val = tensor<int32, [2]>([1, 1])];
            tensor<int32, [4]> second_15_pad_0 = const()[name = tensor<string, []>("second_15_pad_0"), val = tensor<int32, [4]>([0, 0, 0, 0])];
            tensor<int32, [2]> second_15_dilations_0 = const()[name = tensor<string, []>("second_15_dilations_0"), val = tensor<int32, [2]>([1, 1])];
            tensor<int32, []> second_15_groups_0 = const()[name = tensor<string, []>("second_15_groups_0"), val = tensor<int32, []>(1)];
            tensor<fp16, [256, 256, 1, 1]> Conv_60_weight_to_fp16 = const()[name = tensor<string, []>("Conv_60_weight_to_fp16"), val = tensor<fp16, [256, 256, 1, 1]>(BLOBFILE(path = tensor<string, []>("@model_path/weights/weight.bin"), offset = tensor<uint64, []>(1513024)))];
            tensor<fp16, [256]> Conv_60_bias_to_fp16 = const()[name = tensor<string, []>("Conv_60_bias_to_fp16"), val = tensor<fp16, [256]>(BLOBFILE(path = tensor<string, []>("@model_path/weights/weight.bin"), offset = tensor<uint64, []>(1644160)))];
            tensor<fp16, [1, 256, 14, 14]> second_15_cast_fp16 = conv(bias = Conv_60_bias_to_fp16, dilations = second_15_dilations_0, groups = second_15_groups_0, pad = second_15_pad_0, pad_type = second_15_pad_type_0, strides = second_15_strides_0, weight = Conv_60_weight_to_fp16, x = input_61_cast_fp16)[name = tensor<string, []>("second_15_cast_fp16")];
            tensor<fp16, [1, 256, 14, 14]> input_63_cast_fp16 = add(x = input_57_cast_fp16, y = second_15_cast_fp16)[name = tensor<string, []>("input_63_cast_fp16")];
            tensor<string, []> input_tensor_45_pad_type_0 = const()[name = tensor<string, []>("input_tensor_45_pad_type_0"), val = tensor<string, []>("valid")];
            tensor<int32, [2]> input_tensor_45_strides_0 = const()[name = tensor<string, []>("input_tensor_45_strides_0"), val = tensor<int32, [2]>([1, 1])];
            tensor<int32, [4]> input_tensor_45_pad_0 = const()[name = tensor<string, []>("input_tensor_45_pad_0"), val = tensor<int32, [4]>([0, 0, 0, 0])];
            tensor<int32, [2]> input_tensor_45_dilations_0 = const()[name = tensor<string, []>("input_tensor_45_dilations_0"), val = tensor<int32, [2]>([1, 1])];
            tensor<int32, []> input_tensor_45_groups_0 = const()[name = tensor<string, []>("input_tensor_45_groups_0"), val = tensor<int32, []>(1)];
            tensor<fp16, [256, 256, 1, 1]> Conv_62_weight_to_fp16 = const()[name = tensor<string, []>("Conv_62_weight_to_fp16"), val = tensor<fp16, [256, 256, 1, 1]>(BLOBFILE(path = tensor<string, []>("@model_path/weights/weight.bin"), offset = tensor<uint64, []>(1644736)))];
            tensor<fp16, [256]> Conv_62_bias_to_fp16 = const()[name = tensor<string, []>("Conv_62_bias_to_fp16"), val = tensor<fp16, [256]>(BLOBFILE(path = tensor<string, []>("@model_path/weights/weight.bin"), offset = tensor<uint64, []>(1775872)))];
            tensor<fp16, [1, 256, 14, 14]> input_tensor_45_cast_fp16 = conv(bias = Conv_62_bias_to_fp16, dilations = input_tensor_45_dilations_0, groups = input_tensor_45_groups_0, pad = input_tensor_45_pad_0, pad_type = input_tensor_45_pad_type_0, strides = input_tensor_45_strides_0, weight = Conv_62_weight_to_fp16, x = input_63_cast_fp16)[name = tensor<string, []>("input_tensor_45_cast_fp16")];
            tensor<fp16, [256]> input_65_alpha_0_to_fp16 = const()[name = tensor<string, []>("input_65_alpha_0_to_fp16"), val = tensor<fp16, [256]>(BLOBFILE(path = tensor<string, []>("@model_path/weights/weight.bin"), offset = tensor<uint64, []>(1776448)))];
            tensor<fp16, [1, 256, 14, 14]> input_65_cast_fp16 = prelu(alpha = input_65_alpha_0_to_fp16, x = input_tensor_45_cast_fp16)[name = tensor<string, []>("input_65_cast_fp16")];
            tensor<string, []> input_tensor_47_pad_type_0 = const()[name = tensor<string, []>("input_tensor_47_pad_type_0"), val = tensor<string, []>("custom")];
            tensor<int32, [4]> input_tensor_47_pad_0 = const()[name = tensor<string, []>("input_tensor_47_pad_0"), val = tensor<int32, [4]>([1, 1, 1, 1])];
            tensor<int32, []> input_tensor_47_groups_0 = const()[name = tensor<string, []>("input_tensor_47_groups_0"), val = tensor<int32, []>(256)];
            tensor<int32, [2]> input_tensor_47_strides_0 = const()[name = tensor<string, []>("input_tensor_47_strides_0"), val = tensor<int32, [2]>([1, 1])];
            tensor<int32, [2]> input_tensor_47_dilations_0 = const()[name = tensor<string, []>("input_tensor_47_dilations_0"), val = tensor<int32, [2]>([1, 1])];
            tensor<fp16, [256, 1, 3, 3]> Conv_64_weight_to_fp16 = const()[name = tensor<string, []>("Conv_64_weight_to_fp16"), val = tensor<fp16, [256, 1, 3, 3]>(BLOBFILE(path = tensor<string, []>("@model_path/weights/weight.bin"), offset = tensor<uint64, []>(1777024)))];
            tensor<fp16, [256]> Conv_64_bias_to_fp16 = const()[name = tensor<string, []>("Conv_64_bias_to_fp16"), val = tensor<fp16, [256]>(BLOBFILE(path = tensor<string, []>("@model_path/weights/weight.bin"), offset = tensor<uint64, []>(1781696)))];
            tensor<fp16, [1, 256, 14, 14]> input_tensor_47_cast_fp16 = conv(bias = Conv_64_bias_to_fp16, dilations = input_tensor_47_dilations_0, groups = input_tensor_47_groups_0, pad = input_tensor_47_pad_0, pad_type = input_tensor_47_pad_type_0, strides = input_tensor_47_strides_0, weight = Conv_64_weight_to_fp16, x = input_65_cast_fp16)[name = tensor<string, []>("input_tensor_47_cast_fp16")];
            tensor<fp16, [256]> input_67_alpha_0_to_fp16 = const()[name = tensor<string, []>("input_67_alpha_0_to_fp16"), val = tensor<fp16, [256]>(BLOBFILE(path = tensor<string, []>("@model_path/weights/weight.bin"), offset = tensor<uint64, []>(1782272)))];
            tensor<fp16, [1, 256, 14, 14]> input_67_cast_fp16 = prelu(alpha = input_67_alpha_0_to_fp16, x = input_tensor_47_cast_fp16)[name = tensor<string, []>("input_67_cast_fp16")];
            tensor<string, []> second_17_pad_type_0 = const()[name = tensor<string, []>("second_17_pad_type_0"), val = tensor<string, []>("valid")];
            tensor<int32, [2]> second_17_strides_0 = const()[name = tensor<string, []>("second_17_strides_0"), val = tensor<int32, [2]>([1, 1])];
            tensor<int32, [4]> second_17_pad_0 = const()[name = tensor<string, []>("second_17_pad_0"), val = tensor<int32, [4]>([0, 0, 0, 0])];
            tensor<int32, [2]> second_17_dilations_0 = const()[name = tensor<string, []>("second_17_dilations_0"), val = tensor<int32, [2]>([1, 1])];
            tensor<int32, []> second_17_groups_0 = const()[name = tensor<string, []>("second_17_groups_0"), val = tensor<int32, []>(1)];
            tensor<fp16, [256, 256, 1, 1]> Conv_66_weight_to_fp16 = const()[name = tensor<string, []>("Conv_66_weight_to_fp16"), val = tensor<fp16, [256, 256, 1, 1]>(BLOBFILE(path = tensor<string, []>("@model_path/weights/weight.bin"), offset = tensor<uint64, []>(1782848)))];
            tensor<fp16, [256]> Conv_66_bias_to_fp16 = const()[name = tensor<string, []>("Conv_66_bias_to_fp16"), val = tensor<fp16, [256]>(BLOBFILE(path = tensor<string, []>("@model_path/weights/weight.bin"), offset = tensor<uint64, []>(1913984)))];
            tensor<fp16, [1, 256, 14, 14]> second_17_cast_fp16 = conv(bias = Conv_66_bias_to_fp16, dilations = second_17_dilations_0, groups = second_17_groups_0, pad = second_17_pad_0, pad_type = second_17_pad_type_0, strides = second_17_strides_0, weight = Conv_66_weight_to_fp16, x = input_67_cast_fp16)[name = tensor<string, []>("second_17_cast_fp16")];
            tensor<fp16, [1, 256, 14, 14]> input_69_cast_fp16 = add(x = input_63_cast_fp16, y = second_17_cast_fp16)[name = tensor<string, []>("input_69_cast_fp16")];
            tensor<string, []> input_tensor_49_pad_type_0 = const()[name = tensor<string, []>("input_tensor_49_pad_type_0"), val = tensor<string, []>("valid")];
            tensor<int32, [2]> input_tensor_49_strides_0 = const()[name = tensor<string, []>("input_tensor_49_strides_0"), val = tensor<int32, [2]>([1, 1])];
            tensor<int32, [4]> input_tensor_49_pad_0 = const()[name = tensor<string, []>("input_tensor_49_pad_0"), val = tensor<int32, [4]>([0, 0, 0, 0])];
            tensor<int32, [2]> input_tensor_49_dilations_0 = const()[name = tensor<string, []>("input_tensor_49_dilations_0"), val = tensor<int32, [2]>([1, 1])];
            tensor<int32, []> input_tensor_49_groups_0 = const()[name = tensor<string, []>("input_tensor_49_groups_0"), val = tensor<int32, []>(1)];
            tensor<fp16, [256, 256, 1, 1]> Conv_68_weight_to_fp16 = const()[name = tensor<string, []>("Conv_68_weight_to_fp16"), val = tensor<fp16, [256, 256, 1, 1]>(BLOBFILE(path = tensor<string, []>("@model_path/weights/weight.bin"), offset = tensor<uint64, []>(1914560)))];
            tensor<fp16, [256]> Conv_68_bias_to_fp16 = const()[name = tensor<string, []>("Conv_68_bias_to_fp16"), val = tensor<fp16, [256]>(BLOBFILE(path = tensor<string, []>("@model_path/weights/weight.bin"), offset = tensor<uint64, []>(2045696)))];
            tensor<fp16, [1, 256, 14, 14]> input_tensor_49_cast_fp16 = conv(bias = Conv_68_bias_to_fp16, dilations = input_tensor_49_dilations_0, groups = input_tensor_49_groups_0, pad = input_tensor_49_pad_0, pad_type = input_tensor_49_pad_type_0, strides = input_tensor_49_strides_0, weight = Conv_68_weight_to_fp16, x = input_69_cast_fp16)[name = tensor<string, []>("input_tensor_49_cast_fp16")];
            tensor<fp16, [256]> input_71_alpha_0_to_fp16 = const()[name = tensor<string, []>("input_71_alpha_0_to_fp16"), val = tensor<fp16, [256]>(BLOBFILE(path = tensor<string, []>("@model_path/weights/weight.bin"), offset = tensor<uint64, []>(2046272)))];
            tensor<fp16, [1, 256, 14, 14]> input_71_cast_fp16 = prelu(alpha = input_71_alpha_0_to_fp16, x = input_tensor_49_cast_fp16)[name = tensor<string, []>("input_71_cast_fp16")];
            tensor<string, []> input_tensor_51_pad_type_0 = const()[name = tensor<string, []>("input_tensor_51_pad_type_0"), val = tensor<string, []>("custom")];
            tensor<int32, [4]> input_tensor_51_pad_0 = const()[name = tensor<string, []>("input_tensor_51_pad_0"), val = tensor<int32, [4]>([1, 1, 1, 1])];
            tensor<int32, []> input_tensor_51_groups_0 = const()[name = tensor<string, []>("input_tensor_51_groups_0"), val = tensor<int32, []>(256)];
            tensor<int32, [2]> input_tensor_51_strides_0 = const()[name = tensor<string, []>("input_tensor_51_strides_0"), val = tensor<int32, [2]>([1, 1])];
            tensor<int32, [2]> input_tensor_51_dilations_0 = const()[name = tensor<string, []>("input_tensor_51_dilations_0"), val = tensor<int32, [2]>([1, 1])];
            tensor<fp16, [256, 1, 3, 3]> Conv_70_weight_to_fp16 = const()[name = tensor<string, []>("Conv_70_weight_to_fp16"), val = tensor<fp16, [256, 1, 3, 3]>(BLOBFILE(path = tensor<string, []>("@model_path/weights/weight.bin"), offset = tensor<uint64, []>(2046848)))];
            tensor<fp16, [256]> Conv_70_bias_to_fp16 = const()[name = tensor<string, []>("Conv_70_bias_to_fp16"), val = tensor<fp16, [256]>(BLOBFILE(path = tensor<string, []>("@model_path/weights/weight.bin"), offset = tensor<uint64, []>(2051520)))];
            tensor<fp16, [1, 256, 14, 14]> input_tensor_51_cast_fp16 = conv(bias = Conv_70_bias_to_fp16, dilations = input_tensor_51_dilations_0, groups = input_tensor_51_groups_0, pad = input_tensor_51_pad_0, pad_type = input_tensor_51_pad_type_0, strides = input_tensor_51_strides_0, weight = Conv_70_weight_to_fp16, x = input_71_cast_fp16)[name = tensor<string, []>("input_tensor_51_cast_fp16")];
            tensor<fp16, [256]> input_73_alpha_0_to_fp16 = const()[name = tensor<string, []>("input_73_alpha_0_to_fp16"), val = tensor<fp16, [256]>(BLOBFILE(path = tensor<string, []>("@model_path/weights/weight.bin"), offset = tensor<uint64, []>(2052096)))];
            tensor<fp16, [1, 256, 14, 14]> input_73_cast_fp16 = prelu(alpha = input_73_alpha_0_to_fp16, x = input_tensor_51_cast_fp16)[name = tensor<string, []>("input_73_cast_fp16")];
            tensor<string, []> second_19_pad_type_0 = const()[name = tensor<string, []>("second_19_pad_type_0"), val = tensor<string, []>("valid")];
            tensor<int32, [2]> second_19_strides_0 = const()[name = tensor<string, []>("second_19_strides_0"), val = tensor<int32, [2]>([1, 1])];
            tensor<int32, [4]> second_19_pad_0 = const()[name = tensor<string, []>("second_19_pad_0"), val = tensor<int32, [4]>([0, 0, 0, 0])];
            tensor<int32, [2]> second_19_dilations_0 = const()[name = tensor<string, []>("second_19_dilations_0"), val = tensor<int32, [2]>([1, 1])];
            tensor<int32, []> second_19_groups_0 = const()[name = tensor<string, []>("second_19_groups_0"), val = tensor<int32, []>(1)];
            tensor<fp16, [256, 256, 1, 1]> Conv_72_weight_to_fp16 = const()[name = tensor<string, []>("Conv_72_weight_to_fp16"), val = tensor<fp16, [256, 256, 1, 1]>(BLOBFILE(path = tensor<string, []>("@model_path/weights/weight.bin"), offset = tensor<uint64, []>(2052672)))];
            tensor<fp16, [256]> Conv_72_bias_to_fp16 = const()[name = tensor<string, []>("Conv_72_bias_to_fp16"), val = tensor<fp16, [256]>(BLOBFILE(path = tensor<string, []>("@model_path/weights/weight.bin"), offset = tensor<uint64, []>(2183808)))];
            tensor<fp16, [1, 256, 14, 14]> second_19_cast_fp16 = conv(bias = Conv_72_bias_to_fp16, dilations = second_19_dilations_0, groups = second_19_groups_0, pad = second_19_pad_0, pad_type = second_19_pad_type_0, strides = second_19_strides_0, weight = Conv_72_weight_to_fp16, x = input_73_cast_fp16)[name = tensor<string, []>("second_19_cast_fp16")];
            tensor<fp16, [1, 256, 14, 14]> input_75_cast_fp16 = add(x = input_69_cast_fp16, y = second_19_cast_fp16)[name = tensor<string, []>("input_75_cast_fp16")];
            tensor<string, []> input_tensor_53_pad_type_0 = const()[name = tensor<string, []>("input_tensor_53_pad_type_0"), val = tensor<string, []>("valid")];
            tensor<int32, [2]> input_tensor_53_strides_0 = const()[name = tensor<string, []>("input_tensor_53_strides_0"), val = tensor<int32, [2]>([1, 1])];
            tensor<int32, [4]> input_tensor_53_pad_0 = const()[name = tensor<string, []>("input_tensor_53_pad_0"), val = tensor<int32, [4]>([0, 0, 0, 0])];
            tensor<int32, [2]> input_tensor_53_dilations_0 = const()[name = tensor<string, []>("input_tensor_53_dilations_0"), val = tensor<int32, [2]>([1, 1])];
            tensor<int32, []> input_tensor_53_groups_0 = const()[name = tensor<string, []>("input_tensor_53_groups_0"), val = tensor<int32, []>(1)];
            tensor<fp16, [512, 256, 1, 1]> Conv_74_weight_to_fp16 = const()[name = tensor<string, []>("Conv_74_weight_to_fp16"), val = tensor<fp16, [512, 256, 1, 1]>(BLOBFILE(path = tensor<string, []>("@model_path/weights/weight.bin"), offset = tensor<uint64, []>(2184384)))];
            tensor<fp16, [512]> Conv_74_bias_to_fp16 = const()[name = tensor<string, []>("Conv_74_bias_to_fp16"), val = tensor<fp16, [512]>(BLOBFILE(path = tensor<string, []>("@model_path/weights/weight.bin"), offset = tensor<uint64, []>(2446592)))];
            tensor<fp16, [1, 512, 14, 14]> input_tensor_53_cast_fp16 = conv(bias = Conv_74_bias_to_fp16, dilations = input_tensor_53_dilations_0, groups = input_tensor_53_groups_0, pad = input_tensor_53_pad_0, pad_type = input_tensor_53_pad_type_0, strides = input_tensor_53_strides_0, weight = Conv_74_weight_to_fp16, x = input_75_cast_fp16)[name = tensor<string, []>("input_tensor_53_cast_fp16")];
            tensor<fp16, [512]> input_77_alpha_0_to_fp16 = const()[name = tensor<string, []>("input_77_alpha_0_to_fp16"), val = tensor<fp16, [512]>(BLOBFILE(path = tensor<string, []>("@model_path/weights/weight.bin"), offset = tensor<uint64, []>(2447680)))];
            tensor<fp16, [1, 512, 14, 14]> input_77_cast_fp16 = prelu(alpha = input_77_alpha_0_to_fp16, x = input_tensor_53_cast_fp16)[name = tensor<string, []>("input_77_cast_fp16")];
            tensor<string, []> input_tensor_55_pad_type_0 = const()[name = tensor<string, []>("input_tensor_55_pad_type_0"), val = tensor<string, []>("custom")];
            tensor<int32, [4]> input_tensor_55_pad_0 = const()[name = tensor<string, []>("input_tensor_55_pad_0"), val = tensor<int32, [4]>([1, 1, 1, 1])];
            tensor<int32, [2]> input_tensor_55_strides_0 = const()[name = tensor<string, []>("input_tensor_55_strides_0"), val = tensor<int32, [2]>([2, 2])];
            tensor<int32, []> input_tensor_55_groups_0 = const()[name = tensor<string, []>("input_tensor_55_groups_0"), val = tensor<int32, []>(512)];
            tensor<int32, [2]> input_tensor_55_dilations_0 = const()[name = tensor<string, []>("input_tensor_55_dilations_0"), val = tensor<int32, [2]>([1, 1])];
            tensor<fp16, [512, 1, 3, 3]> Conv_76_weight_to_fp16 = const()[name = tensor<string, []>("Conv_76_weight_to_fp16"), val = tensor<fp16, [512, 1, 3, 3]>(BLOBFILE(path = tensor<string, []>("@model_path/weights/weight.bin"), offset = tensor<uint64, []>(2448768)))];
            tensor<fp16, [512]> Conv_76_bias_to_fp16 = const()[name = tensor<string, []>("Conv_76_bias_to_fp16"), val = tensor<fp16, [512]>(BLOBFILE(path = tensor<string, []>("@model_path/weights/weight.bin"), offset = tensor<uint64, []>(2458048)))];
            tensor<fp16, [1, 512, 7, 7]> input_tensor_55_cast_fp16 = conv(bias = Conv_76_bias_to_fp16, dilations = input_tensor_55_dilations_0, groups = input_tensor_55_groups_0, pad = input_tensor_55_pad_0, pad_type = input_tensor_55_pad_type_0, strides = input_tensor_55_strides_0, weight = Conv_76_weight_to_fp16, x = input_77_cast_fp16)[name = tensor<string, []>("input_tensor_55_cast_fp16")];
            tensor<fp16, [512]> input_79_alpha_0_to_fp16 = const()[name = tensor<string, []>("input_79_alpha_0_to_fp16"), val = tensor<fp16, [512]>(BLOBFILE(path = tensor<string, []>("@model_path/weights/weight.bin"), offset = tensor<uint64, []>(2459136)))];
            tensor<fp16, [1, 512, 7, 7]> input_79_cast_fp16 = prelu(alpha = input_79_alpha_0_to_fp16, x = input_tensor_55_cast_fp16)[name = tensor<string, []>("input_79_cast_fp16")];
            tensor<string, []> input_81_pad_type_0 = const()[name = tensor<string, []>("input_81_pad_type_0"), val = tensor<string, []>("valid")];
            tensor<int32, [2]> input_81_strides_0 = const()[name = tensor<string, []>("input_81_strides_0"), val = tensor<int32, [2]>([1, 1])];
            tensor<int32, [4]> input_81_pad_0 = const()[name = tensor<string, []>("input_81_pad_0"), val = tensor<int32, [4]>([0, 0, 0, 0])];
            tensor<int32, [2]> input_81_dilations_0 = const()[name = tensor<string, []>("input_81_dilations_0"), val = tensor<int32, [2]>([1, 1])];
            tensor<int32, []> input_81_groups_0 = const()[name = tensor<string, []>("input_81_groups_0"), val = tensor<int32, []>(1)];
            tensor<fp16, [256, 512, 1, 1]> Conv_78_weight_to_fp16 = const()[name = tensor<string, []>("Conv_78_weight_to_fp16"), val = tensor<fp16, [256, 512, 1, 1]>(BLOBFILE(path = tensor<string, []>("@model_path/weights/weight.bin"), offset = tensor<uint64, []>(2460224)))];
            tensor<fp16, [256]> Conv_78_bias_to_fp16 = const()[name = tensor<string, []>("Conv_78_bias_to_fp16"), val = tensor<fp16, [256]>(BLOBFILE(path = tensor<string, []>("@model_path/weights/weight.bin"), offset = tensor<uint64, []>(2722432)))];
            tensor<fp16, [1, 256, 7, 7]> input_81_cast_fp16 = conv(bias = Conv_78_bias_to_fp16, dilations = input_81_dilations_0, groups = input_81_groups_0, pad = input_81_pad_0, pad_type = input_81_pad_type_0, strides = input_81_strides_0, weight = Conv_78_weight_to_fp16, x = input_79_cast_fp16)[name = tensor<string, []>("input_81_cast_fp16")];
            tensor<string, []> input_tensor_57_pad_type_0 = const()[name = tensor<string, []>("input_tensor_57_pad_type_0"), val = tensor<string, []>("valid")];
            tensor<int32, [2]> input_tensor_57_strides_0 = const()[name = tensor<string, []>("input_tensor_57_strides_0"), val = tensor<int32, [2]>([1, 1])];
            tensor<int32, [4]> input_tensor_57_pad_0 = const()[name = tensor<string, []>("input_tensor_57_pad_0"), val = tensor<int32, [4]>([0, 0, 0, 0])];
            tensor<int32, [2]> input_tensor_57_dilations_0 = const()[name = tensor<string, []>("input_tensor_57_dilations_0"), val = tensor<int32, [2]>([1, 1])];
            tensor<int32, []> input_tensor_57_groups_0 = const()[name = tensor<string, []>("input_tensor_57_groups_0"), val = tensor<int32, []>(1)];
            tensor<fp16, [256, 256, 1, 1]> Conv_79_weight_to_fp16 = const()[name = tensor<string, []>("Conv_79_weight_to_fp16"), val = tensor<fp16, [256, 256, 1, 1]>(BLOBFILE(path = tensor<string, []>("@model_path/weights/weight.bin"), offset = tensor<uint64, []>(2723008)))];
            tensor<fp16, [256]> Conv_79_bias_to_fp16 = const()[name = tensor<string, []>("Conv_79_bias_to_fp16"), val = tensor<fp16, [256]>(BLOBFILE(path = tensor<string, []>("@model_path/weights/weight.bin"), offset = tensor<uint64, []>(2854144)))];
            tensor<fp16, [1, 256, 7, 7]> input_tensor_57_cast_fp16 = conv(bias = Conv_79_bias_to_fp16, dilations = input_tensor_57_dilations_0, groups = input_tensor_57_groups_0, pad = input_tensor_57_pad_0, pad_type = input_tensor_57_pad_type_0, strides = input_tensor_57_strides_0, weight = Conv_79_weight_to_fp16, x = input_81_cast_fp16)[name = tensor<string, []>("input_tensor_57_cast_fp16")];
            tensor<fp16, [256]> input_83_alpha_0_to_fp16 = const()[name = tensor<string, []>("input_83_alpha_0_to_fp16"), val = tensor<fp16, [256]>(BLOBFILE(path = tensor<string, []>("@model_path/weights/weight.bin"), offset = tensor<uint64, []>(2854720)))];
            tensor<fp16, [1, 256, 7, 7]> input_83_cast_fp16 = prelu(alpha = input_83_alpha_0_to_fp16, x = input_tensor_57_cast_fp16)[name = tensor<string, []>("input_83_cast_fp16")];
            tensor<string, []> input_tensor_59_pad_type_0 = const()[name = tensor<string, []>("input_tensor_59_pad_type_0"), val = tensor<string, []>("custom")];
            tensor<int32, [4]> input_tensor_59_pad_0 = const()[name = tensor<string, []>("input_tensor_59_pad_0"), val = tensor<int32, [4]>([1, 1, 1, 1])];
            tensor<int32, []> input_tensor_59_groups_0 = const()[name = tensor<string, []>("input_tensor_59_groups_0"), val = tensor<int32, []>(256)];
            tensor<int32, [2]> input_tensor_59_strides_0 = const()[name = tensor<string, []>("input_tensor_59_strides_0"), val = tensor<int32, [2]>([1, 1])];
            tensor<int32, [2]> input_tensor_59_dilations_0 = const()[name = tensor<string, []>("input_tensor_59_dilations_0"), val = tensor<int32, [2]>([1, 1])];
            tensor<fp16, [256, 1, 3, 3]> Conv_81_weight_to_fp16 = const()[name = tensor<string, []>("Conv_81_weight_to_fp16"), val = tensor<fp16, [256, 1, 3, 3]>(BLOBFILE(path = tensor<string, []>("@model_path/weights/weight.bin"), offset = tensor<uint64, []>(2855296)))];
            tensor<fp16, [256]> Conv_81_bias_to_fp16 = const()[name = tensor<string, []>("Conv_81_bias_to_fp16"), val = tensor<fp16, [256]>(BLOBFILE(path = tensor<string, []>("@model_path/weights/weight.bin"), offset = tensor<uint64, []>(2859968)))];
            tensor<fp16, [1, 256, 7, 7]> input_tensor_59_cast_fp16 = conv(bias = Conv_81_bias_to_fp16, dilations = input_tensor_59_dilations_0, groups = input_tensor_59_groups_0, pad = input_tensor_59_pad_0, pad_type = input_tensor_59_pad_type_0, strides = input_tensor_59_strides_0, weight = Conv_81_weight_to_fp16, x = input_83_cast_fp16)[name = tensor<string, []>("input_tensor_59_cast_fp16")];
            tensor<fp16, [256]> input_85_alpha_0_to_fp16 = const()[name = tensor<string, []>("input_85_alpha_0_to_fp16"), val = tensor<fp16, [256]>(BLOBFILE(path = tensor<string, []>("@model_path/weights/weight.bin"), offset = tensor<uint64, []>(2860544)))];
            tensor<fp16, [1, 256, 7, 7]> input_85_cast_fp16 = prelu(alpha = input_85_alpha_0_to_fp16, x = input_tensor_59_cast_fp16)[name = tensor<string, []>("input_85_cast_fp16")];
            tensor<string, []> second_21_pad_type_0 = const()[name = tensor<string, []>("second_21_pad_type_0"), val = tensor<string, []>("valid")];
            tensor<int32, [2]> second_21_strides_0 = const()[name = tensor<string, []>("second_21_strides_0"), val = tensor<int32, [2]>([1, 1])];
            tensor<int32, [4]> second_21_pad_0 = const()[name = tensor<string, []>("second_21_pad_0"), val = tensor<int32, [4]>([0, 0, 0, 0])];
            tensor<int32, [2]> second_21_dilations_0 = const()[name = tensor<string, []>("second_21_dilations_0"), val = tensor<int32, [2]>([1, 1])];
            tensor<int32, []> second_21_groups_0 = const()[name = tensor<string, []>("second_21_groups_0"), val = tensor<int32, []>(1)];
            tensor<fp16, [256, 256, 1, 1]> Conv_83_weight_to_fp16 = const()[name = tensor<string, []>("Conv_83_weight_to_fp16"), val = tensor<fp16, [256, 256, 1, 1]>(BLOBFILE(path = tensor<string, []>("@model_path/weights/weight.bin"), offset = tensor<uint64, []>(2861120)))];
            tensor<fp16, [256]> Conv_83_bias_to_fp16 = const()[name = tensor<string, []>("Conv_83_bias_to_fp16"), val = tensor<fp16, [256]>(BLOBFILE(path = tensor<string, []>("@model_path/weights/weight.bin"), offset = tensor<uint64, []>(2992256)))];
            tensor<fp16, [1, 256, 7, 7]> second_21_cast_fp16 = conv(bias = Conv_83_bias_to_fp16, dilations = second_21_dilations_0, groups = second_21_groups_0, pad = second_21_pad_0, pad_type = second_21_pad_type_0, strides = second_21_strides_0, weight = Conv_83_weight_to_fp16, x = input_85_cast_fp16)[name = tensor<string, []>("second_21_cast_fp16")];
            tensor<fp16, [1, 256, 7, 7]> input_87_cast_fp16 = add(x = input_81_cast_fp16, y = second_21_cast_fp16)[name = tensor<string, []>("input_87_cast_fp16")];
            tensor<string, []> input_tensor_61_pad_type_0 = const()[name = tensor<string, []>("input_tensor_61_pad_type_0"), val = tensor<string, []>("valid")];
            tensor<int32, [2]> input_tensor_61_strides_0 = const()[name = tensor<string, []>("input_tensor_61_strides_0"), val = tensor<int32, [2]>([1, 1])];
            tensor<int32, [4]> input_tensor_61_pad_0 = const()[name = tensor<string, []>("input_tensor_61_pad_0"), val = tensor<int32, [4]>([0, 0, 0, 0])];
            tensor<int32, [2]> input_tensor_61_dilations_0 = const()[name = tensor<string, []>("input_tensor_61_dilations_0"), val = tensor<int32, [2]>([1, 1])];
            tensor<int32, []> input_tensor_61_groups_0 = const()[name = tensor<string, []>("input_tensor_61_groups_0"), val = tensor<int32, []>(1)];
            tensor<fp16, [256, 256, 1, 1]> Conv_85_weight_to_fp16 = const()[name = tensor<string, []>("Conv_85_weight_to_fp16"), val = tensor<fp16, [256, 256, 1, 1]>(BLOBFILE(path = tensor<string, []>("@model_path/weights/weight.bin"), offset = tensor<uint64, []>(2992832)))];
            tensor<fp16, [256]> Conv_85_bias_to_fp16 = const()[name = tensor<string, []>("Conv_85_bias_to_fp16"), val = tensor<fp16, [256]>(BLOBFILE(path = tensor<string, []>("@model_path/weights/weight.bin"), offset = tensor<uint64, []>(3123968)))];
            tensor<fp16, [1, 256, 7, 7]> input_tensor_61_cast_fp16 = conv(bias = Conv_85_bias_to_fp16, dilations = input_tensor_61_dilations_0, groups = input_tensor_61_groups_0, pad = input_tensor_61_pad_0, pad_type = input_tensor_61_pad_type_0, strides = input_tensor_61_strides_0, weight = Conv_85_weight_to_fp16, x = input_87_cast_fp16)[name = tensor<string, []>("input_tensor_61_cast_fp16")];
            tensor<fp16, [256]> input_89_alpha_0_to_fp16 = const()[name = tensor<string, []>("input_89_alpha_0_to_fp16"), val = tensor<fp16, [256]>(BLOBFILE(path = tensor<string, []>("@model_path/weights/weight.bin"), offset = tensor<uint64, []>(3124544)))];
            tensor<fp16, [1, 256, 7, 7]> input_89_cast_fp16 = prelu(alpha = input_89_alpha_0_to_fp16, x = input_tensor_61_cast_fp16)[name = tensor<string, []>("input_89_cast_fp16")];
            tensor<string, []> input_tensor_63_pad_type_0 = const()[name = tensor<string, []>("input_tensor_63_pad_type_0"), val = tensor<string, []>("custom")];
            tensor<int32, [4]> input_tensor_63_pad_0 = const()[name = tensor<string, []>("input_tensor_63_pad_0"), val = tensor<int32, [4]>([1, 1, 1, 1])];
            tensor<int32, []> input_tensor_63_groups_0 = const()[name = tensor<string, []>("input_tensor_63_groups_0"), val = tensor<int32, []>(256)];
            tensor<int32, [2]> input_tensor_63_strides_0 = const()[name = tensor<string, []>("input_tensor_63_strides_0"), val = tensor<int32, [2]>([1, 1])];
            tensor<int32, [2]> input_tensor_63_dilations_0 = const()[name = tensor<string, []>("input_tensor_63_dilations_0"), val = tensor<int32, [2]>([1, 1])];
            tensor<fp16, [256, 1, 3, 3]> Conv_87_weight_to_fp16 = const()[name = tensor<string, []>("Conv_87_weight_to_fp16"), val = tensor<fp16, [256, 1, 3, 3]>(BLOBFILE(path = tensor<string, []>("@model_path/weights/weight.bin"), offset = tensor<uint64, []>(3125120)))];
            tensor<fp16, [256]> Conv_87_bias_to_fp16 = const()[name = tensor<string, []>("Conv_87_bias_to_fp16"), val = tensor<fp16, [256]>(BLOBFILE(path = tensor<string, []>("@model_path/weights/weight.bin"), offset = tensor<uint64, []>(3129792)))];
            tensor<fp16, [1, 256, 7, 7]> input_tensor_63_cast_fp16 = conv(bias = Conv_87_bias_to_fp16, dilations = input_tensor_63_dilations_0, groups = input_tensor_63_groups_0, pad = input_tensor_63_pad_0, pad_type = input_tensor_63_pad_type_0, strides = input_tensor_63_strides_0, weight = Conv_87_weight_to_fp16, x = input_89_cast_fp16)[name = tensor<string, []>("input_tensor_63_cast_fp16")];
            tensor<fp16, [256]> input_91_alpha_0_to_fp16 = const()[name = tensor<string, []>("input_91_alpha_0_to_fp16"), val = tensor<fp16, [256]>(BLOBFILE(path = tensor<string, []>("@model_path/weights/weight.bin"), offset = tensor<uint64, []>(3130368)))];
            tensor<fp16, [1, 256, 7, 7]> input_91_cast_fp16 = prelu(alpha = input_91_alpha_0_to_fp16, x = input_tensor_63_cast_fp16)[name = tensor<string, []>("input_91_cast_fp16")];
            tensor<string, []> second_pad_type_0 = const()[name = tensor<string, []>("second_pad_type_0"), val = tensor<string, []>("valid")];
            tensor<int32, [2]> second_strides_0 = const()[name = tensor<string, []>("second_strides_0"), val = tensor<int32, [2]>([1, 1])];
            tensor<int32, [4]> second_pad_0 = const()[name = tensor<string, []>("second_pad_0"), val = tensor<int32, [4]>([0, 0, 0, 0])];
            tensor<int32, [2]> second_dilations_0 = const()[name = tensor<string, []>("second_dilations_0"), val = tensor<int32, [2]>([1, 1])];
            tensor<int32, []> second_groups_0 = const()[name = tensor<string, []>("second_groups_0"), val = tensor<int32, []>(1)];
            tensor<fp16, [256, 256, 1, 1]> Conv_89_weight_to_fp16 = const()[name = tensor<string, []>("Conv_89_weight_to_fp16"), val = tensor<fp16, [256, 256, 1, 1]>(BLOBFILE(path = tensor<string, []>("@model_path/weights/weight.bin"), offset = tensor<uint64, []>(3130944)))];
            tensor<fp16, [256]> Conv_89_bias_to_fp16 = const()[name = tensor<string, []>("Conv_89_bias_to_fp16"), val = tensor<fp16, [256]>(BLOBFILE(path = tensor<string, []>("@model_path/weights/weight.bin"), offset = tensor<uint64, []>(3262080)))];
            tensor<fp16, [1, 256, 7, 7]> second_cast_fp16 = conv(bias = Conv_89_bias_to_fp16, dilations = second_dilations_0, groups = second_groups_0, pad = second_pad_0, pad_type = second_pad_type_0, strides = second_strides_0, weight = Conv_89_weight_to_fp16, x = input_91_cast_fp16)[name = tensor<string, []>("second_cast_fp16")];
            tensor<fp16, [1, 256, 7, 7]> input_93_cast_fp16 = add(x = input_87_cast_fp16, y = second_cast_fp16)[name = tensor<string, []>("input_93_cast_fp16")];
            tensor<string, []> input_tensor_65_pad_type_0 = const()[name = tensor<string, []>("input_tensor_65_pad_type_0"), val = tensor<string, []>("valid")];
            tensor<int32, [2]> input_tensor_65_strides_0 = const()[name = tensor<string, []>("input_tensor_65_strides_0"), val = tensor<int32, [2]>([1, 1])];
            tensor<int32, [4]> input_tensor_65_pad_0 = const()[name = tensor<string, []>("input_tensor_65_pad_0"), val = tensor<int32, [4]>([0, 0, 0, 0])];
            tensor<int32, [2]> input_tensor_65_dilations_0 = const()[name = tensor<string, []>("input_tensor_65_dilations_0"), val = tensor<int32, [2]>([1, 1])];
            tensor<int32, []> input_tensor_65_groups_0 = const()[name = tensor<string, []>("input_tensor_65_groups_0"), val = tensor<int32, []>(1)];
            tensor<fp16, [512, 256, 1, 1]> Conv_91_weight_to_fp16 = const()[name = tensor<string, []>("Conv_91_weight_to_fp16"), val = tensor<fp16, [512, 256, 1, 1]>(BLOBFILE(path = tensor<string, []>("@model_path/weights/weight.bin"), offset = tensor<uint64, []>(3262656)))];
            tensor<fp16, [512]> Conv_91_bias_to_fp16 = const()[name = tensor<string, []>("Conv_91_bias_to_fp16"), val = tensor<fp16, [512]>(BLOBFILE(path = tensor<string, []>("@model_path/weights/weight.bin"), offset = tensor<uint64, []>(3524864)))];
            tensor<fp16, [1, 512, 7, 7]> input_tensor_65_cast_fp16 = conv(bias = Conv_91_bias_to_fp16, dilations = input_tensor_65_dilations_0, groups = input_tensor_65_groups_0, pad = input_tensor_65_pad_0, pad_type = input_tensor_65_pad_type_0, strides = input_tensor_65_strides_0, weight = Conv_91_weight_to_fp16, x = input_93_cast_fp16)[name = tensor<string, []>("input_tensor_65_cast_fp16")];
            tensor<fp16, [512]> input_95_alpha_0_to_fp16 = const()[name = tensor<string, []>("input_95_alpha_0_to_fp16"), val = tensor<fp16, [512]>(BLOBFILE(path = tensor<string, []>("@model_path/weights/weight.bin"), offset = tensor<uint64, []>(3525952)))];
            tensor<fp16, [1, 512, 7, 7]> input_95_cast_fp16 = prelu(alpha = input_95_alpha_0_to_fp16, x = input_tensor_65_cast_fp16)[name = tensor<string, []>("input_95_cast_fp16")];
            tensor<string, []> input_tensor_pad_type_0 = const()[name = tensor<string, []>("input_tensor_pad_type_0"), val = tensor<string, []>("valid")];
            tensor<int32, [2]> input_tensor_strides_0 = const()[name = tensor<string, []>("input_tensor_strides_0"), val = tensor<int32, [2]>([1, 1])];
            tensor<int32, [4]> input_tensor_pad_0 = const()[name = tensor<string, []>("input_tensor_pad_0"), val = tensor<int32, [4]>([0, 0, 0, 0])];
            tensor<int32, [2]> input_tensor_dilations_0 = const()[name = tensor<string, []>("input_tensor_dilations_0"), val = tensor<int32, [2]>([1, 1])];
            tensor<int32, []> input_tensor_groups_0 = const()[name = tensor<string, []>("input_tensor_groups_0"), val = tensor<int32, []>(1)];
            tensor<fp16, [64, 512, 1, 1]> Conv_93_weight_to_fp16 = const()[name = tensor<string, []>("Conv_93_weight_to_fp16"), val = tensor<fp16, [64, 512, 1, 1]>(BLOBFILE(path = tensor<string, []>("@model_path/weights/weight.bin"), offset = tensor<uint64, []>(3527040)))];
            tensor<fp16, [64]> Conv_93_bias_to_fp16 = const()[name = tensor<string, []>("Conv_93_bias_to_fp16"), val = tensor<fp16, [64]>(BLOBFILE(path = tensor<string, []>("@model_path/weights/weight.bin"), offset = tensor<uint64, []>(3592640)))];
            tensor<fp16, [1, 64, 7, 7]> input_tensor_cast_fp16 = conv(bias = Conv_93_bias_to_fp16, dilations = input_tensor_dilations_0, groups = input_tensor_groups_0, pad = input_tensor_pad_0, pad_type = input_tensor_pad_type_0, strides = input_tensor_strides_0, weight = Conv_93_weight_to_fp16, x = input_95_cast_fp16)[name = tensor<string, []>("input_tensor_cast_fp16")];
            tensor<fp16, [64]> input_97_alpha_0_to_fp16 = const()[name = tensor<string, []>("input_97_alpha_0_to_fp16"), val = tensor<fp16, [64]>(BLOBFILE(path = tensor<string, []>("@model_path/weights/weight.bin"), offset = tensor<uint64, []>(3592832)))];
            tensor<fp16, [1, 64, 7, 7]> input_97_cast_fp16 = prelu(alpha = input_97_alpha_0_to_fp16, x = input_tensor_cast_fp16)[name = tensor<string, []>("input_97_cast_fp16")];
            tensor<int32, [2]> concat_0 = const()[name = tensor<string, []>("concat_0"), val = tensor<int32, [2]>([1, 3136])];
            tensor<fp16, [1, 3136]> input_99_cast_fp16 = reshape(shape = concat_0, x = input_97_cast_fp16)[name = tensor<string, []>("input_99_cast_fp16")];
            tensor<fp16, [512, 3136]> Gemm_96_weight_to_fp16 = const()[name = tensor<string, []>("Gemm_96_weight_to_fp16"), val = tensor<fp16, [512, 3136]>(BLOBFILE(path = tensor<string, []>("@model_path/weights/weight.bin"), offset = tensor<uint64, []>(3593024)))];
            tensor<fp16, [512]> Gemm_96_bias_to_fp16 = const()[name = tensor<string, []>("Gemm_96_bias_to_fp16"), val = tensor<fp16, [512]>(BLOBFILE(path = tensor<string, []>("@model_path/weights/weight.bin"), offset = tensor<uint64, []>(6804352)))];
            tensor<fp16, [1, 512]> linear_0_cast_fp16 = linear(bias = Gemm_96_bias_to_fp16, weight = Gemm_96_weight_to_fp16, x = input_99_cast_fp16)[name = tensor<string, []>("linear_0_cast_fp16")];
            tensor<int32, [1]> var_854_rank2_expansion_axes_0 = const()[name = tensor<string, []>("op_854_rank2_expansion_axes_0"), val = tensor<int32, [1]>([-1])];
            tensor<fp16, [1, 512, 1]> var_854_rank2_expansion_cast_fp16 = expand_dims(axes = var_854_rank2_expansion_axes_0, x = linear_0_cast_fp16)[name = tensor<string, []>("op_854_rank2_expansion_cast_fp16")];
            tensor<fp16, [512]> BatchNormalization_97_running_mean_to_fp16 = const()[name = tensor<string, []>("BatchNormalization_97_running_mean_to_fp16"), val = tensor<fp16, [512]>(BLOBFILE(path = tensor<string, []>("@model_path/weights/weight.bin"), offset = tensor<uint64, []>(6805440)))];
            tensor<fp16, [512]> BatchNormalization_97_running_var_to_fp16 = const()[name = tensor<string, []>("BatchNormalization_97_running_var_to_fp16"), val = tensor<fp16, [512]>(BLOBFILE(path = tensor<string, []>("@model_path/weights/weight.bin"), offset = tensor<uint64, []>(6806528)))];
            tensor<fp16, [512]> BatchNormalization_97_weight_to_fp16 = const()[name = tensor<string, []>("BatchNormalization_97_weight_to_fp16"), val = tensor<fp16, [512]>(BLOBFILE(path = tensor<string, []>("@model_path/weights/weight.bin"), offset = tensor<uint64, []>(6807616)))];
            tensor<fp16, [512]> BatchNormalization_97_bias_to_fp16 = const()[name = tensor<string, []>("BatchNormalization_97_bias_to_fp16"), val = tensor<fp16, [512]>(BLOBFILE(path = tensor<string, []>("@model_path/weights/weight.bin"), offset = tensor<uint64, []>(6808704)))];
            tensor<fp16, []> var_847_to_fp16 = const()[name = tensor<string, []>("op_847_to_fp16"), val = tensor<fp16, []>(0x1.5p-17)];
            tensor<fp16, [1, 512, 1]> var_854_batch_norm_1d_cast_fp16 = batch_norm(beta = BatchNormalization_97_bias_to_fp16, epsilon = var_847_to_fp16, gamma = BatchNormalization_97_weight_to_fp16, mean = BatchNormalization_97_running_mean_to_fp16, variance = BatchNormalization_97_running_var_to_fp16, x = var_854_rank2_expansion_cast_fp16)[name = tensor<string, []>("op_854_batch_norm_1d_cast_fp16")];
            tensor<int32, [1]> var_854_axes_0 = const()[name = tensor<string, []>("op_854_axes_0"), val = tensor<int32, [1]>([-1])];
            tensor<fp16, [1, 512]> embedding = squeeze(axes = var_854_axes_0, x = var_854_batch_norm_1d_cast_fp16)[name = tensor<string, []>("op_854_cast_fp16")];
        } -> (embedding);
}